<?xml version="1.0" ?>
<net name="ssd_mobilenet_v1_coco" version="11">
	<layers>
		<layer id="0" name="211321178236" type="Const" version="opset1">
			<data element_type="f16" offset="0" shape="" size="2"/>
			<output>
				<port id="0" precision="FP16"/>
			</output>
		</layer>
		<layer id="1" name="211421189496" type="Const" version="opset1">
			<data element_type="f16" offset="2" shape="" size="2"/>
			<output>
				<port id="0" precision="FP16"/>
			</output>
		</layer>
		<layer id="2" name="211521198500" type="Const" version="opset1">
			<data element_type="f16" offset="0" shape="" size="2"/>
			<output>
				<port id="0" precision="FP16"/>
			</output>
		</layer>
		<layer id="3" name="211621209064" type="Const" version="opset1">
			<data element_type="f16" offset="2" shape="" size="2"/>
			<output>
				<port id="0" precision="FP16"/>
			</output>
		</layer>
		<layer id="4" name="233323379148" type="Const" version="opset1">
			<data element_type="f16" offset="0" shape="" size="2"/>
			<output>
				<port id="0" precision="FP16"/>
			</output>
		</layer>
		<layer id="5" name="233423389154" type="Const" version="opset1">
			<data element_type="f16" offset="2" shape="" size="2"/>
			<output>
				<port id="0" precision="FP16"/>
			</output>
		</layer>
		<layer id="6" name="233523399274" type="Const" version="opset1">
			<data element_type="f16" offset="0" shape="" size="2"/>
			<output>
				<port id="0" precision="FP16"/>
			</output>
		</layer>
		<layer id="7" name="233623409424" type="Const" version="opset1">
			<data element_type="f16" offset="2" shape="" size="2"/>
			<output>
				<port id="0" precision="FP16"/>
			</output>
		</layer>
		<layer id="8" name="223322379325" type="Const" version="opset1">
			<data element_type="f16" offset="4" shape="1,512,1,1" size="1024"/>
			<output>
				<port id="0" precision="FP16">
					<dim>1</dim>
					<dim>512</dim>
					<dim>1</dim>
					<dim>1</dim>
				</port>
			</output>
		</layer>
		<layer id="9" name="223422388458" type="Const" version="opset1">
			<data element_type="f16" offset="1028" shape="1,512,1,1" size="1024"/>
			<output>
				<port id="0" precision="FP16">
					<dim>1</dim>
					<dim>512</dim>
					<dim>1</dim>
					<dim>1</dim>
				</port>
			</output>
		</layer>
		<layer id="10" name="223522398827" type="Const" version="opset1">
			<data element_type="f16" offset="4" shape="1,512,1,1" size="1024"/>
			<output>
				<port id="0" precision="FP16">
					<dim>1</dim>
					<dim>512</dim>
					<dim>1</dim>
					<dim>1</dim>
				</port>
			</output>
		</layer>
		<layer id="11" name="223622408305" type="Const" version="opset1">
			<data element_type="f16" offset="1028" shape="1,512,1,1" size="1024"/>
			<output>
				<port id="0" precision="FP16">
					<dim>1</dim>
					<dim>512</dim>
					<dim>1</dim>
					<dim>1</dim>
				</port>
			</output>
		</layer>
		<layer id="12" name="157315778740" type="Const" version="opset1">
			<data element_type="f16" offset="0" shape="" size="2"/>
			<output>
				<port id="0" precision="FP16"/>
			</output>
		</layer>
		<layer id="13" name="157415789466" type="Const" version="opset1">
			<data element_type="f16" offset="2" shape="" size="2"/>
			<output>
				<port id="0" precision="FP16"/>
			</output>
		</layer>
		<layer id="14" name="157515798374" type="Const" version="opset1">
			<data element_type="f16" offset="0" shape="" size="2"/>
			<output>
				<port id="0" precision="FP16"/>
			</output>
		</layer>
		<layer id="15" name="157615809058" type="Const" version="opset1">
			<data element_type="f16" offset="2" shape="" size="2"/>
			<output>
				<port id="0" precision="FP16"/>
			</output>
		</layer>
		<layer id="16" name="159315978257" type="Const" version="opset1">
			<data element_type="f16" offset="4" shape="1,512,1,1" size="1024"/>
			<output>
				<port id="0" precision="FP16">
					<dim>1</dim>
					<dim>512</dim>
					<dim>1</dim>
					<dim>1</dim>
				</port>
			</output>
		</layer>
		<layer id="17" name="159415988545" type="Const" version="opset1">
			<data element_type="f16" offset="2052" shape="1,512,1,1" size="1024"/>
			<output>
				<port id="0" precision="FP16">
					<dim>1</dim>
					<dim>512</dim>
					<dim>1</dim>
					<dim>1</dim>
				</port>
			</output>
		</layer>
		<layer id="18" name="159515998911" type="Const" version="opset1">
			<data element_type="f16" offset="4" shape="1,512,1,1" size="1024"/>
			<output>
				<port id="0" precision="FP16">
					<dim>1</dim>
					<dim>512</dim>
					<dim>1</dim>
					<dim>1</dim>
				</port>
			</output>
		</layer>
		<layer id="19" name="159616008395" type="Const" version="opset1">
			<data element_type="f16" offset="2052" shape="1,512,1,1" size="1024"/>
			<output>
				<port id="0" precision="FP16">
					<dim>1</dim>
					<dim>512</dim>
					<dim>1</dim>
					<dim>1</dim>
				</port>
			</output>
		</layer>
		<layer id="20" name="145314578560" type="Const" version="opset1">
			<data element_type="f16" offset="0" shape="" size="2"/>
			<output>
				<port id="0" precision="FP16"/>
			</output>
		</layer>
		<layer id="21" name="145414589463" type="Const" version="opset1">
			<data element_type="f16" offset="2" shape="" size="2"/>
			<output>
				<port id="0" precision="FP16"/>
			</output>
		</layer>
		<layer id="22" name="145514598965" type="Const" version="opset1">
			<data element_type="f16" offset="0" shape="" size="2"/>
			<output>
				<port id="0" precision="FP16"/>
			</output>
		</layer>
		<layer id="23" name="145614609178" type="Const" version="opset1">
			<data element_type="f16" offset="2" shape="" size="2"/>
			<output>
				<port id="0" precision="FP16"/>
			</output>
		</layer>
		<layer id="24" name="151315178926" type="Const" version="opset1">
			<data element_type="f16" offset="4" shape="1,512,1,1" size="1024"/>
			<output>
				<port id="0" precision="FP16">
					<dim>1</dim>
					<dim>512</dim>
					<dim>1</dim>
					<dim>1</dim>
				</port>
			</output>
		</layer>
		<layer id="25" name="151415188296" type="Const" version="opset1">
			<data element_type="f16" offset="3076" shape="1,512,1,1" size="1024"/>
			<output>
				<port id="0" precision="FP16">
					<dim>1</dim>
					<dim>512</dim>
					<dim>1</dim>
					<dim>1</dim>
				</port>
			</output>
		</layer>
		<layer id="26" name="151515198785" type="Const" version="opset1">
			<data element_type="f16" offset="4" shape="1,512,1,1" size="1024"/>
			<output>
				<port id="0" precision="FP16">
					<dim>1</dim>
					<dim>512</dim>
					<dim>1</dim>
					<dim>1</dim>
				</port>
			</output>
		</layer>
		<layer id="27" name="151615209271" type="Const" version="opset1">
			<data element_type="f16" offset="3076" shape="1,512,1,1" size="1024"/>
			<output>
				<port id="0" precision="FP16">
					<dim>1</dim>
					<dim>512</dim>
					<dim>1</dim>
					<dim>1</dim>
				</port>
			</output>
		</layer>
		<layer id="28" name="227322779478" type="Const" version="opset1">
			<data element_type="f16" offset="0" shape="" size="2"/>
			<output>
				<port id="0" precision="FP16"/>
			</output>
		</layer>
		<layer id="29" name="227422788551" type="Const" version="opset1">
			<data element_type="f16" offset="2" shape="" size="2"/>
			<output>
				<port id="0" precision="FP16"/>
			</output>
		</layer>
		<layer id="30" name="227522799076" type="Const" version="opset1">
			<data element_type="f16" offset="0" shape="" size="2"/>
			<output>
				<port id="0" precision="FP16"/>
			</output>
		</layer>
		<layer id="31" name="227622808563" type="Const" version="opset1">
			<data element_type="f16" offset="2" shape="" size="2"/>
			<output>
				<port id="0" precision="FP16"/>
			</output>
		</layer>
		<layer id="32" name="179317978521" type="Const" version="opset1">
			<data element_type="f16" offset="4" shape="1,512,1,1" size="1024"/>
			<output>
				<port id="0" precision="FP16">
					<dim>1</dim>
					<dim>512</dim>
					<dim>1</dim>
					<dim>1</dim>
				</port>
			</output>
		</layer>
		<layer id="33" name="179417989142" type="Const" version="opset1">
			<data element_type="f16" offset="4100" shape="1,512,1,1" size="1024"/>
			<output>
				<port id="0" precision="FP16">
					<dim>1</dim>
					<dim>512</dim>
					<dim>1</dim>
					<dim>1</dim>
				</port>
			</output>
		</layer>
		<layer id="34" name="179517998266" type="Const" version="opset1">
			<data element_type="f16" offset="4" shape="1,512,1,1" size="1024"/>
			<output>
				<port id="0" precision="FP16">
					<dim>1</dim>
					<dim>512</dim>
					<dim>1</dim>
					<dim>1</dim>
				</port>
			</output>
		</layer>
		<layer id="35" name="179618008308" type="Const" version="opset1">
			<data element_type="f16" offset="4100" shape="1,512,1,1" size="1024"/>
			<output>
				<port id="0" precision="FP16">
					<dim>1</dim>
					<dim>512</dim>
					<dim>1</dim>
					<dim>1</dim>
				</port>
			</output>
		</layer>
		<layer id="36" name="203320378422" type="Const" version="opset1">
			<data element_type="f16" offset="0" shape="" size="2"/>
			<output>
				<port id="0" precision="FP16"/>
			</output>
		</layer>
		<layer id="37" name="203420388731" type="Const" version="opset1">
			<data element_type="f16" offset="2" shape="" size="2"/>
			<output>
				<port id="0" precision="FP16"/>
			</output>
		</layer>
		<layer id="38" name="203520398620" type="Const" version="opset1">
			<data element_type="f16" offset="0" shape="" size="2"/>
			<output>
				<port id="0" precision="FP16"/>
			</output>
		</layer>
		<layer id="39" name="203620408839" type="Const" version="opset1">
			<data element_type="f16" offset="2" shape="" size="2"/>
			<output>
				<port id="0" precision="FP16"/>
			</output>
		</layer>
		<layer id="40" name="229322979355" type="Const" version="opset1">
			<data element_type="f16" offset="4" shape="1,512,1,1" size="1024"/>
			<output>
				<port id="0" precision="FP16">
					<dim>1</dim>
					<dim>512</dim>
					<dim>1</dim>
					<dim>1</dim>
				</port>
			</output>
		</layer>
		<layer id="41" name="229422988245" type="Const" version="opset1">
			<data element_type="f16" offset="5124" shape="1,512,1,1" size="1024"/>
			<output>
				<port id="0" precision="FP16">
					<dim>1</dim>
					<dim>512</dim>
					<dim>1</dim>
					<dim>1</dim>
				</port>
			</output>
		</layer>
		<layer id="42" name="229522998425" type="Const" version="opset1">
			<data element_type="f16" offset="4" shape="1,512,1,1" size="1024"/>
			<output>
				<port id="0" precision="FP16">
					<dim>1</dim>
					<dim>512</dim>
					<dim>1</dim>
					<dim>1</dim>
				</port>
			</output>
		</layer>
		<layer id="43" name="229623009136" type="Const" version="opset1">
			<data element_type="f16" offset="5124" shape="1,512,1,1" size="1024"/>
			<output>
				<port id="0" precision="FP16">
					<dim>1</dim>
					<dim>512</dim>
					<dim>1</dim>
					<dim>1</dim>
				</port>
			</output>
		</layer>
		<layer id="44" name="175317578896" type="Const" version="opset1">
			<data element_type="f16" offset="0" shape="" size="2"/>
			<output>
				<port id="0" precision="FP16"/>
			</output>
		</layer>
		<layer id="45" name="175417588812" type="Const" version="opset1">
			<data element_type="f16" offset="2" shape="" size="2"/>
			<output>
				<port id="0" precision="FP16"/>
			</output>
		</layer>
		<layer id="46" name="175517599502" type="Const" version="opset1">
			<data element_type="f16" offset="0" shape="" size="2"/>
			<output>
				<port id="0" precision="FP16"/>
			</output>
		</layer>
		<layer id="47" name="175617609388" type="Const" version="opset1">
			<data element_type="f16" offset="2" shape="" size="2"/>
			<output>
				<port id="0" precision="FP16"/>
			</output>
		</layer>
		<layer id="48" name="143314378389" type="Const" version="opset1">
			<data element_type="f16" offset="6148" shape="1,256,1,1" size="512"/>
			<output>
				<port id="0" precision="FP16">
					<dim>1</dim>
					<dim>256</dim>
					<dim>1</dim>
					<dim>1</dim>
				</port>
			</output>
		</layer>
		<layer id="49" name="143414389349" type="Const" version="opset1">
			<data element_type="f16" offset="6660" shape="1,256,1,1" size="512"/>
			<output>
				<port id="0" precision="FP16">
					<dim>1</dim>
					<dim>256</dim>
					<dim>1</dim>
					<dim>1</dim>
				</port>
			</output>
		</layer>
		<layer id="50" name="143514398890" type="Const" version="opset1">
			<data element_type="f16" offset="6148" shape="1,256,1,1" size="512"/>
			<output>
				<port id="0" precision="FP16">
					<dim>1</dim>
					<dim>256</dim>
					<dim>1</dim>
					<dim>1</dim>
				</port>
			</output>
		</layer>
		<layer id="51" name="143614409226" type="Const" version="opset1">
			<data element_type="f16" offset="6660" shape="1,256,1,1" size="512"/>
			<output>
				<port id="0" precision="FP16">
					<dim>1</dim>
					<dim>256</dim>
					<dim>1</dim>
					<dim>1</dim>
				</port>
			</output>
		</layer>
		<layer id="52" name="183318379037" type="Const" version="opset1">
			<data element_type="f16" offset="0" shape="" size="2"/>
			<output>
				<port id="0" precision="FP16"/>
			</output>
		</layer>
		<layer id="53" name="183418389211" type="Const" version="opset1">
			<data element_type="f16" offset="2" shape="" size="2"/>
			<output>
				<port id="0" precision="FP16"/>
			</output>
		</layer>
		<layer id="54" name="183518398650" type="Const" version="opset1">
			<data element_type="f16" offset="0" shape="" size="2"/>
			<output>
				<port id="0" precision="FP16"/>
			</output>
		</layer>
		<layer id="55" name="183618408803" type="Const" version="opset1">
			<data element_type="f16" offset="2" shape="" size="2"/>
			<output>
				<port id="0" precision="FP16"/>
			</output>
		</layer>
		<layer id="56" name="161316178998" type="Const" version="opset1">
			<data element_type="f16" offset="6148" shape="1,256,1,1" size="512"/>
			<output>
				<port id="0" precision="FP16">
					<dim>1</dim>
					<dim>256</dim>
					<dim>1</dim>
					<dim>1</dim>
				</port>
			</output>
		</layer>
		<layer id="57" name="161416189328" type="Const" version="opset1">
			<data element_type="f16" offset="7172" shape="1,256,1,1" size="512"/>
			<output>
				<port id="0" precision="FP16">
					<dim>1</dim>
					<dim>256</dim>
					<dim>1</dim>
					<dim>1</dim>
				</port>
			</output>
		</layer>
		<layer id="58" name="161516198623" type="Const" version="opset1">
			<data element_type="f16" offset="6148" shape="1,256,1,1" size="512"/>
			<output>
				<port id="0" precision="FP16">
					<dim>1</dim>
					<dim>256</dim>
					<dim>1</dim>
					<dim>1</dim>
				</port>
			</output>
		</layer>
		<layer id="59" name="161616208656" type="Const" version="opset1">
			<data element_type="f16" offset="7172" shape="1,256,1,1" size="512"/>
			<output>
				<port id="0" precision="FP16">
					<dim>1</dim>
					<dim>256</dim>
					<dim>1</dim>
					<dim>1</dim>
				</port>
			</output>
		</layer>
		<layer id="60" name="201320179316" type="Const" version="opset1">
			<data element_type="f16" offset="0" shape="" size="2"/>
			<output>
				<port id="0" precision="FP16"/>
			</output>
		</layer>
		<layer id="61" name="201420189055" type="Const" version="opset1">
			<data element_type="f16" offset="2" shape="" size="2"/>
			<output>
				<port id="0" precision="FP16"/>
			</output>
		</layer>
		<layer id="62" name="201520199202" type="Const" version="opset1">
			<data element_type="f16" offset="0" shape="" size="2"/>
			<output>
				<port id="0" precision="FP16"/>
			</output>
		</layer>
		<layer id="63" name="201620208782" type="Const" version="opset1">
			<data element_type="f16" offset="2" shape="" size="2"/>
			<output>
				<port id="0" precision="FP16"/>
			</output>
		</layer>
		<layer id="64" name="147314778353" type="Const" version="opset1">
			<data element_type="f16" offset="7684" shape="1,128,1,1" size="256"/>
			<output>
				<port id="0" precision="FP16">
					<dim>1</dim>
					<dim>128</dim>
					<dim>1</dim>
					<dim>1</dim>
				</port>
			</output>
		</layer>
		<layer id="65" name="147414788935" type="Const" version="opset1">
			<data element_type="f16" offset="7940" shape="1,128,1,1" size="256"/>
			<output>
				<port id="0" precision="FP16">
					<dim>1</dim>
					<dim>128</dim>
					<dim>1</dim>
					<dim>1</dim>
				</port>
			</output>
		</layer>
		<layer id="66" name="147514798512" type="Const" version="opset1">
			<data element_type="f16" offset="7684" shape="1,128,1,1" size="256"/>
			<output>
				<port id="0" precision="FP16">
					<dim>1</dim>
					<dim>128</dim>
					<dim>1</dim>
					<dim>1</dim>
				</port>
			</output>
		</layer>
		<layer id="67" name="147614808314" type="Const" version="opset1">
			<data element_type="f16" offset="7940" shape="1,128,1,1" size="256"/>
			<output>
				<port id="0" precision="FP16">
					<dim>1</dim>
					<dim>128</dim>
					<dim>1</dim>
					<dim>1</dim>
				</port>
			</output>
		</layer>
		<layer id="68" name="163316379208" type="Const" version="opset1">
			<data element_type="f16" offset="0" shape="" size="2"/>
			<output>
				<port id="0" precision="FP16"/>
			</output>
		</layer>
		<layer id="69" name="163416388866" type="Const" version="opset1">
			<data element_type="f16" offset="2" shape="" size="2"/>
			<output>
				<port id="0" precision="FP16"/>
			</output>
		</layer>
		<layer id="70" name="163516398845" type="Const" version="opset1">
			<data element_type="f16" offset="0" shape="" size="2"/>
			<output>
				<port id="0" precision="FP16"/>
			</output>
		</layer>
		<layer id="71" name="163616409373" type="Const" version="opset1">
			<data element_type="f16" offset="2" shape="" size="2"/>
			<output>
				<port id="0" precision="FP16"/>
			</output>
		</layer>
		<layer id="72" name="225322578269" type="Const" version="opset1">
			<data element_type="f16" offset="7684" shape="1,128,1,1" size="256"/>
			<output>
				<port id="0" precision="FP16">
					<dim>1</dim>
					<dim>128</dim>
					<dim>1</dim>
					<dim>1</dim>
				</port>
			</output>
		</layer>
		<layer id="73" name="225422588524" type="Const" version="opset1">
			<data element_type="f16" offset="8196" shape="1,128,1,1" size="256"/>
			<output>
				<port id="0" precision="FP16">
					<dim>1</dim>
					<dim>128</dim>
					<dim>1</dim>
					<dim>1</dim>
				</port>
			</output>
		</layer>
		<layer id="74" name="225522598239" type="Const" version="opset1">
			<data element_type="f16" offset="7684" shape="1,128,1,1" size="256"/>
			<output>
				<port id="0" precision="FP16">
					<dim>1</dim>
					<dim>128</dim>
					<dim>1</dim>
					<dim>1</dim>
				</port>
			</output>
		</layer>
		<layer id="75" name="225622608644" type="Const" version="opset1">
			<data element_type="f16" offset="8196" shape="1,128,1,1" size="256"/>
			<output>
				<port id="0" precision="FP16">
					<dim>1</dim>
					<dim>128</dim>
					<dim>1</dim>
					<dim>1</dim>
				</port>
			</output>
		</layer>
		<layer id="76" name="173317378455" type="Const" version="opset1">
			<data element_type="f16" offset="0" shape="" size="2"/>
			<output>
				<port id="0" precision="FP16"/>
			</output>
		</layer>
		<layer id="77" name="173417389319" type="Const" version="opset1">
			<data element_type="f16" offset="2" shape="" size="2"/>
			<output>
				<port id="0" precision="FP16"/>
			</output>
		</layer>
		<layer id="78" name="173517398587" type="Const" version="opset1">
			<data element_type="f16" offset="0" shape="" size="2"/>
			<output>
				<port id="0" precision="FP16"/>
			</output>
		</layer>
		<layer id="79" name="173617408851" type="Const" version="opset1">
			<data element_type="f16" offset="2" shape="" size="2"/>
			<output>
				<port id="0" precision="FP16"/>
			</output>
		</layer>
		<layer id="80" name="189318978347" type="Const" version="opset1">
			<data element_type="f16" offset="8452" shape="1,64,1,1" size="128"/>
			<output>
				<port id="0" precision="FP16">
					<dim>1</dim>
					<dim>64</dim>
					<dim>1</dim>
					<dim>1</dim>
				</port>
			</output>
		</layer>
		<layer id="81" name="189418988749" type="Const" version="opset1">
			<data element_type="f16" offset="8580" shape="1,64,1,1" size="128"/>
			<output>
				<port id="0" precision="FP16">
					<dim>1</dim>
					<dim>64</dim>
					<dim>1</dim>
					<dim>1</dim>
				</port>
			</output>
		</layer>
		<layer id="82" name="189518999073" type="Const" version="opset1">
			<data element_type="f16" offset="8452" shape="1,64,1,1" size="128"/>
			<output>
				<port id="0" precision="FP16">
					<dim>1</dim>
					<dim>64</dim>
					<dim>1</dim>
					<dim>1</dim>
				</port>
			</output>
		</layer>
		<layer id="83" name="189619009127" type="Const" version="opset1">
			<data element_type="f16" offset="8580" shape="1,64,1,1" size="128"/>
			<output>
				<port id="0" precision="FP16">
					<dim>1</dim>
					<dim>64</dim>
					<dim>1</dim>
					<dim>1</dim>
				</port>
			</output>
		</layer>
		<layer id="84" name="177317778635" type="Const" version="opset1">
			<data element_type="f16" offset="0" shape="" size="2"/>
			<output>
				<port id="0" precision="FP16"/>
			</output>
		</layer>
		<layer id="85" name="177417788380" type="Const" version="opset1">
			<data element_type="f16" offset="2" shape="" size="2"/>
			<output>
				<port id="0" precision="FP16"/>
			</output>
		</layer>
		<layer id="86" name="177517798509" type="Const" version="opset1">
			<data element_type="f16" offset="0" shape="" size="2"/>
			<output>
				<port id="0" precision="FP16"/>
			</output>
		</layer>
		<layer id="87" name="177617809259" type="Const" version="opset1">
			<data element_type="f16" offset="2" shape="" size="2"/>
			<output>
				<port id="0" precision="FP16"/>
			</output>
		</layer>
		<layer id="88" name="139313978248" type="Const" version="opset1">
			<data element_type="f16" offset="8708" shape="1,32,1,1" size="64"/>
			<output>
				<port id="0" precision="FP16">
					<dim>1</dim>
					<dim>32</dim>
					<dim>1</dim>
					<dim>1</dim>
				</port>
			</output>
		</layer>
		<layer id="89" name="139413989385" type="Const" version="opset1">
			<data element_type="f16" offset="8772" shape="1,32,1,1" size="64"/>
			<output>
				<port id="0" precision="FP16">
					<dim>1</dim>
					<dim>32</dim>
					<dim>1</dim>
					<dim>1</dim>
				</port>
			</output>
		</layer>
		<layer id="90" name="139513999343" type="Const" version="opset1">
			<data element_type="f16" offset="8708" shape="1,32,1,1" size="64"/>
			<output>
				<port id="0" precision="FP16">
					<dim>1</dim>
					<dim>32</dim>
					<dim>1</dim>
					<dim>1</dim>
				</port>
			</output>
		</layer>
		<layer id="91" name="139614008905" type="Const" version="opset1">
			<data element_type="f16" offset="8772" shape="1,32,1,1" size="64"/>
			<output>
				<port id="0" precision="FP16">
					<dim>1</dim>
					<dim>32</dim>
					<dim>1</dim>
					<dim>1</dim>
				</port>
			</output>
		</layer>
		<layer id="92" name="149314978611" type="Const" version="opset1">
			<data element_type="f16" offset="8836" shape="" size="2"/>
			<output>
				<port id="0" precision="FP16"/>
			</output>
		</layer>
		<layer id="93" name="149414989451" type="Const" version="opset1">
			<data element_type="f16" offset="8838" shape="" size="2"/>
			<output>
				<port id="0" precision="FP16"/>
			</output>
		</layer>
		<layer id="94" name="149514998944" type="Const" version="opset1">
			<data element_type="f16" offset="8836" shape="" size="2"/>
			<output>
				<port id="0" precision="FP16"/>
			</output>
		</layer>
		<layer id="95" name="149615008956" type="Const" version="opset1">
			<data element_type="f16" offset="8838" shape="" size="2"/>
			<output>
				<port id="0" precision="FP16"/>
			</output>
		</layer>
		<layer id="96" name="290329078947" type="Const" version="opset1">
			<data element_type="f16" offset="0" shape="" size="2"/>
			<output>
				<port id="0" precision="FP16"/>
			</output>
		</layer>
		<layer id="97" name="290429088632" type="Const" version="opset1">
			<data element_type="f16" offset="8840" shape="" size="2"/>
			<output>
				<port id="0" precision="FP16"/>
			</output>
		</layer>
		<layer id="98" name="290529099112" type="Const" version="opset1">
			<data element_type="f16" offset="0" shape="" size="2"/>
			<output>
				<port id="0" precision="FP16"/>
			</output>
		</layer>
		<layer id="99" name="290629108713" type="Const" version="opset1">
			<data element_type="f16" offset="8840" shape="" size="2"/>
			<output>
				<port id="0" precision="FP16"/>
			</output>
		</layer>
		<layer id="100" name="image_tensor" type="Parameter" version="opset1">
			<data element_type="u8" shape="1,300,300,3"/>
			<output>
				<port id="0" names="image_tensor:0" precision="U8">
					<dim>1</dim>
					<dim>300</dim>
					<dim>300</dim>
					<dim>3</dim>
				</port>
			</output>
		</layer>
		<layer id="101" name="Convert_1518" type="Convert" version="opset1">
			<data destination_type="f16"/>
			<input>
				<port id="0">
					<dim>1</dim>
					<dim>300</dim>
					<dim>300</dim>
					<dim>3</dim>
				</port>
			</input>
			<output>
				<port id="1" precision="FP16">
					<dim>1</dim>
					<dim>300</dim>
					<dim>300</dim>
					<dim>3</dim>
				</port>
			</output>
		</layer>
		<layer id="102" name="ToFloat/fq_input_0" type="FakeQuantize" version="opset1">
			<data auto_broadcast="numpy" levels="256"/>
			<input>
				<port id="0">
					<dim>1</dim>
					<dim>300</dim>
					<dim>300</dim>
					<dim>3</dim>
				</port>
				<port id="1"/>
				<port id="2"/>
				<port id="3"/>
				<port id="4"/>
			</input>
			<output>
				<port id="5" precision="FP16">
					<dim>1</dim>
					<dim>300</dim>
					<dim>300</dim>
					<dim>3</dim>
				</port>
			</output>
		</layer>
		<layer id="103" name="image_tensor/Transpose([0 3 1 2])/value1597721641368" type="Const" version="opset1">
			<data element_type="i64" offset="8842" shape="4" size="32"/>
			<output>
				<port id="0" precision="I64">
					<dim>4</dim>
				</port>
			</output>
		</layer>
		<layer id="104" name="ToFloat" type="Transpose" version="opset1">
			<input>
				<port id="0">
					<dim>1</dim>
					<dim>300</dim>
					<dim>300</dim>
					<dim>3</dim>
				</port>
				<port id="1">
					<dim>4</dim>
				</port>
			</input>
			<output>
				<port id="2" precision="FP16">
					<dim>1</dim>
					<dim>3</dim>
					<dim>300</dim>
					<dim>300</dim>
				</port>
			</output>
		</layer>
		<layer id="105" name="Preprocessor/mul/x3664474/quantized49879157" type="Const" version="opset1">
			<data element_type="i8" offset="8874" shape="1,1,1,1" size="1"/>
			<output>
				<port id="0" precision="I8">
					<dim>1</dim>
					<dim>1</dim>
					<dim>1</dim>
					<dim>1</dim>
				</port>
			</output>
		</layer>
		<layer id="106" name="Preprocessor/mul/x3664474/quantized/to_f16" type="Convert" version="opset1">
			<data destination_type="f16"/>
			<input>
				<port id="0">
					<dim>1</dim>
					<dim>1</dim>
					<dim>1</dim>
					<dim>1</dim>
				</port>
			</input>
			<output>
				<port id="1" precision="FP16">
					<dim>1</dim>
					<dim>1</dim>
					<dim>1</dim>
					<dim>1</dim>
				</port>
			</output>
		</layer>
		<layer id="107" name="Preprocessor/mul/fq_input_0/zero_point50068392" type="Const" version="opset1">
			<data element_type="f16" offset="8875" shape="1,1,1,1" size="2"/>
			<output>
				<port id="0" precision="FP16">
					<dim>1</dim>
					<dim>1</dim>
					<dim>1</dim>
					<dim>1</dim>
				</port>
			</output>
		</layer>
		<layer id="108" name="Preprocessor/mul/fq_input_0/minus_zp" type="Subtract" version="opset1">
			<data auto_broadcast="numpy"/>
			<input>
				<port id="0">
					<dim>1</dim>
					<dim>1</dim>
					<dim>1</dim>
					<dim>1</dim>
				</port>
				<port id="1">
					<dim>1</dim>
					<dim>1</dim>
					<dim>1</dim>
					<dim>1</dim>
				</port>
			</input>
			<output>
				<port id="2" precision="FP16">
					<dim>1</dim>
					<dim>1</dim>
					<dim>1</dim>
					<dim>1</dim>
				</port>
			</output>
		</layer>
		<layer id="109" name="Preprocessor/mul/fq_input_0/scale49959070" type="Const" version="opset1">
			<data element_type="f16" offset="8877" shape="1,1,1,1" size="2"/>
			<output>
				<port id="0" precision="FP16">
					<dim>1</dim>
					<dim>1</dim>
					<dim>1</dim>
					<dim>1</dim>
				</port>
			</output>
		</layer>
		<layer id="110" name="Preprocessor/mul/fq_input_0/mulpiply_by_scale" type="Multiply" version="opset1">
			<data auto_broadcast="numpy"/>
			<input>
				<port id="0">
					<dim>1</dim>
					<dim>1</dim>
					<dim>1</dim>
					<dim>1</dim>
				</port>
				<port id="1">
					<dim>1</dim>
					<dim>1</dim>
					<dim>1</dim>
					<dim>1</dim>
				</port>
			</input>
			<output>
				<port id="2" precision="FP16">
					<dim>1</dim>
					<dim>1</dim>
					<dim>1</dim>
					<dim>1</dim>
				</port>
			</output>
		</layer>
		<layer id="111" name="Preprocessor/mul" type="Multiply" version="opset1">
			<data auto_broadcast="numpy"/>
			<input>
				<port id="0">
					<dim>1</dim>
					<dim>1</dim>
					<dim>1</dim>
					<dim>1</dim>
				</port>
				<port id="1">
					<dim>1</dim>
					<dim>3</dim>
					<dim>300</dim>
					<dim>300</dim>
				</port>
			</input>
			<output>
				<port id="2" names="Preprocessor/mul:0" precision="FP16">
					<dim>1</dim>
					<dim>3</dim>
					<dim>300</dim>
					<dim>300</dim>
				</port>
			</output>
		</layer>
		<layer id="112" name="Preprocessor/sub/y3718941" type="Const" version="opset1">
			<data element_type="f16" offset="8879" shape="1,1,1,1" size="2"/>
			<output>
				<port id="0" names="Preprocessor/sub/y:0" precision="FP16">
					<dim>1</dim>
					<dim>1</dim>
					<dim>1</dim>
					<dim>1</dim>
				</port>
			</output>
		</layer>
		<layer id="113" name="Preprocessor/sub" type="Add" version="opset1">
			<data auto_broadcast="numpy"/>
			<input>
				<port id="0">
					<dim>1</dim>
					<dim>3</dim>
					<dim>300</dim>
					<dim>300</dim>
				</port>
				<port id="1">
					<dim>1</dim>
					<dim>1</dim>
					<dim>1</dim>
					<dim>1</dim>
				</port>
			</input>
			<output>
				<port id="2" names="Preprocessor/sub:0" precision="FP16">
					<dim>1</dim>
					<dim>3</dim>
					<dim>300</dim>
					<dim>300</dim>
				</port>
			</output>
		</layer>
		<layer id="114" name="FeatureExtractor/MobilenetV1/MobilenetV1/Conv2d_0/BatchNorm/batchnorm/mul_1/fq_input_0" type="FakeQuantize" version="opset1">
			<data auto_broadcast="numpy" levels="256"/>
			<input>
				<port id="0">
					<dim>1</dim>
					<dim>3</dim>
					<dim>300</dim>
					<dim>300</dim>
				</port>
				<port id="1"/>
				<port id="2"/>
				<port id="3"/>
				<port id="4"/>
			</input>
			<output>
				<port id="5" precision="FP16">
					<dim>1</dim>
					<dim>3</dim>
					<dim>300</dim>
					<dim>300</dim>
				</port>
			</output>
		</layer>
		<layer id="115" name="FeatureExtractor/MobilenetV1/Conv2d_0/weights/read/_166__cf__1693734477/quantized60979484" type="Const" version="opset1">
			<data element_type="i8" offset="8881" shape="32,3,3,3" size="864"/>
			<output>
				<port id="0" precision="I8">
					<dim>32</dim>
					<dim>3</dim>
					<dim>3</dim>
					<dim>3</dim>
				</port>
			</output>
		</layer>
		<layer id="116" name="FeatureExtractor/MobilenetV1/Conv2d_0/weights/read/_166__cf__1693734477/quantized/to_f16" type="Convert" version="opset1">
			<data destination_type="f16"/>
			<input>
				<port id="0">
					<dim>32</dim>
					<dim>3</dim>
					<dim>3</dim>
					<dim>3</dim>
				</port>
			</input>
			<output>
				<port id="1" precision="FP16">
					<dim>32</dim>
					<dim>3</dim>
					<dim>3</dim>
					<dim>3</dim>
				</port>
			</output>
		</layer>
		<layer id="117" name="FeatureExtractor/MobilenetV1/MobilenetV1/Conv2d_0/BatchNorm/batchnorm/mul_1/fq_weights_1/zero_point61168953" type="Const" version="opset1">
			<data element_type="f16" offset="9745" shape="32,1,1,1" size="64"/>
			<output>
				<port id="0" precision="FP16">
					<dim>32</dim>
					<dim>1</dim>
					<dim>1</dim>
					<dim>1</dim>
				</port>
			</output>
		</layer>
		<layer id="118" name="FeatureExtractor/MobilenetV1/MobilenetV1/Conv2d_0/BatchNorm/batchnorm/mul_1/fq_weights_1/minus_zp" type="Subtract" version="opset1">
			<data auto_broadcast="numpy"/>
			<input>
				<port id="0">
					<dim>32</dim>
					<dim>3</dim>
					<dim>3</dim>
					<dim>3</dim>
				</port>
				<port id="1">
					<dim>32</dim>
					<dim>1</dim>
					<dim>1</dim>
					<dim>1</dim>
				</port>
			</input>
			<output>
				<port id="2" precision="FP16">
					<dim>32</dim>
					<dim>3</dim>
					<dim>3</dim>
					<dim>3</dim>
				</port>
			</output>
		</layer>
		<layer id="119" name="FeatureExtractor/MobilenetV1/MobilenetV1/Conv2d_0/BatchNorm/batchnorm/mul_1/fq_weights_1/scale61058326" type="Const" version="opset1">
			<data element_type="f16" offset="9809" shape="32,1,1,1" size="64"/>
			<output>
				<port id="0" precision="FP16">
					<dim>32</dim>
					<dim>1</dim>
					<dim>1</dim>
					<dim>1</dim>
				</port>
			</output>
		</layer>
		<layer id="120" name="FeatureExtractor/MobilenetV1/MobilenetV1/Conv2d_0/BatchNorm/batchnorm/mul_1/fq_weights_1/mulpiply_by_scale" type="Multiply" version="opset1">
			<data auto_broadcast="numpy"/>
			<input>
				<port id="0">
					<dim>32</dim>
					<dim>3</dim>
					<dim>3</dim>
					<dim>3</dim>
				</port>
				<port id="1">
					<dim>32</dim>
					<dim>1</dim>
					<dim>1</dim>
					<dim>1</dim>
				</port>
			</input>
			<output>
				<port id="2" precision="FP16">
					<dim>32</dim>
					<dim>3</dim>
					<dim>3</dim>
					<dim>3</dim>
				</port>
			</output>
		</layer>
		<layer id="121" name="FeatureExtractor/MobilenetV1/MobilenetV1/Conv2d_0/BatchNorm/batchnorm/mul_1" type="Convolution" version="opset1">
			<data auto_pad="same_upper" dilations="1,1" pads_begin="0,0" pads_end="0,0" strides="2,2"/>
			<input>
				<port id="0">
					<dim>1</dim>
					<dim>3</dim>
					<dim>300</dim>
					<dim>300</dim>
				</port>
				<port id="1">
					<dim>32</dim>
					<dim>3</dim>
					<dim>3</dim>
					<dim>3</dim>
				</port>
			</input>
			<output>
				<port id="2" names="FeatureExtractor/MobilenetV1/MobilenetV1/Conv2d_0/BatchNorm/batchnorm/mul_1:0" precision="FP16">
					<dim>1</dim>
					<dim>32</dim>
					<dim>150</dim>
					<dim>150</dim>
				</port>
			</output>
		</layer>
		<layer id="122" name="FeatureExtractor/MobilenetV1/MobilenetV1/Conv2d_0/BatchNorm/batchnorm/sub/_165__cf__1683759082" type="Const" version="opset1">
			<data element_type="f16" offset="9873" shape="1,32,1,1" size="64"/>
			<output>
				<port id="0" names="FeatureExtractor/MobilenetV1/MobilenetV1/Conv2d_0/BatchNorm/batchnorm/sub/_165__cf__168:0" precision="FP16">
					<dim>1</dim>
					<dim>32</dim>
					<dim>1</dim>
					<dim>1</dim>
				</port>
			</output>
		</layer>
		<layer id="123" name="FeatureExtractor/MobilenetV1/MobilenetV1/Conv2d_0/BatchNorm/batchnorm/add_1" type="Add" version="opset1">
			<data auto_broadcast="numpy"/>
			<input>
				<port id="0">
					<dim>1</dim>
					<dim>32</dim>
					<dim>150</dim>
					<dim>150</dim>
				</port>
				<port id="1">
					<dim>1</dim>
					<dim>32</dim>
					<dim>1</dim>
					<dim>1</dim>
				</port>
			</input>
			<output>
				<port id="2" names="FeatureExtractor/MobilenetV1/MobilenetV1/Conv2d_0/BatchNorm/batchnorm/add_1:0" precision="FP16">
					<dim>1</dim>
					<dim>32</dim>
					<dim>150</dim>
					<dim>150</dim>
				</port>
			</output>
		</layer>
		<layer id="124" name="FeatureExtractor/MobilenetV1/MobilenetV1/Conv2d_0/Relu6" type="Clamp" version="opset1">
			<data max="6" min="0"/>
			<input>
				<port id="0">
					<dim>1</dim>
					<dim>32</dim>
					<dim>150</dim>
					<dim>150</dim>
				</port>
			</input>
			<output>
				<port id="1" names="FeatureExtractor/MobilenetV1/MobilenetV1/Conv2d_0/Relu6:0" precision="FP16">
					<dim>1</dim>
					<dim>32</dim>
					<dim>150</dim>
					<dim>150</dim>
				</port>
			</output>
		</layer>
		<layer id="125" name="FeatureExtractor/MobilenetV1/MobilenetV1/Conv2d_1_depthwise/depthwise/fq_input_0" type="FakeQuantize" version="opset1">
			<data auto_broadcast="numpy" levels="256"/>
			<input>
				<port id="0">
					<dim>1</dim>
					<dim>32</dim>
					<dim>150</dim>
					<dim>150</dim>
				</port>
				<port id="1">
					<dim>1</dim>
					<dim>32</dim>
					<dim>1</dim>
					<dim>1</dim>
				</port>
				<port id="2">
					<dim>1</dim>
					<dim>32</dim>
					<dim>1</dim>
					<dim>1</dim>
				</port>
				<port id="3">
					<dim>1</dim>
					<dim>32</dim>
					<dim>1</dim>
					<dim>1</dim>
				</port>
				<port id="4">
					<dim>1</dim>
					<dim>32</dim>
					<dim>1</dim>
					<dim>1</dim>
				</port>
			</input>
			<output>
				<port id="5" precision="FP16">
					<dim>1</dim>
					<dim>32</dim>
					<dim>150</dim>
					<dim>150</dim>
				</port>
			</output>
		</layer>
		<layer id="126" name="7338/value73409310" type="Const" version="opset1">
			<data element_type="i64" offset="9937" shape="5" size="40"/>
			<output>
				<port id="0" precision="I64">
					<dim>5</dim>
				</port>
			</output>
		</layer>
		<layer id="127" name="FeatureExtractor/MobilenetV1/MobilenetV1/Conv2d_1_depthwise/BatchNorm/batchnorm/mul_1_copy3784479/quantized52578536" type="Const" version="opset1">
			<data element_type="i8" offset="9977" shape="32,1,3,3" size="288"/>
			<output>
				<port id="0" precision="I8">
					<dim>32</dim>
					<dim>1</dim>
					<dim>3</dim>
					<dim>3</dim>
				</port>
			</output>
		</layer>
		<layer id="128" name="FeatureExtractor/MobilenetV1/MobilenetV1/Conv2d_1_depthwise/BatchNorm/batchnorm/mul_1_copy3784479/quantized/to_f16" type="Convert" version="opset1">
			<data destination_type="f16"/>
			<input>
				<port id="0">
					<dim>32</dim>
					<dim>1</dim>
					<dim>3</dim>
					<dim>3</dim>
				</port>
			</input>
			<output>
				<port id="1" precision="FP16">
					<dim>32</dim>
					<dim>1</dim>
					<dim>3</dim>
					<dim>3</dim>
				</port>
			</output>
		</layer>
		<layer id="129" name="FeatureExtractor/MobilenetV1/MobilenetV1/Conv2d_1_depthwise/depthwise/fq_weights_1/zero_point52768617" type="Const" version="opset1">
			<data element_type="f16" offset="10265" shape="32,1,1,1" size="64"/>
			<output>
				<port id="0" precision="FP16">
					<dim>32</dim>
					<dim>1</dim>
					<dim>1</dim>
					<dim>1</dim>
				</port>
			</output>
		</layer>
		<layer id="130" name="FeatureExtractor/MobilenetV1/MobilenetV1/Conv2d_1_depthwise/depthwise/fq_weights_1/minus_zp" type="Subtract" version="opset1">
			<data auto_broadcast="numpy"/>
			<input>
				<port id="0">
					<dim>32</dim>
					<dim>1</dim>
					<dim>3</dim>
					<dim>3</dim>
				</port>
				<port id="1">
					<dim>32</dim>
					<dim>1</dim>
					<dim>1</dim>
					<dim>1</dim>
				</port>
			</input>
			<output>
				<port id="2" precision="FP16">
					<dim>32</dim>
					<dim>1</dim>
					<dim>3</dim>
					<dim>3</dim>
				</port>
			</output>
		</layer>
		<layer id="131" name="FeatureExtractor/MobilenetV1/MobilenetV1/Conv2d_1_depthwise/depthwise/fq_weights_1/scale52658434" type="Const" version="opset1">
			<data element_type="f16" offset="10329" shape="32,1,1,1" size="64"/>
			<output>
				<port id="0" precision="FP16">
					<dim>32</dim>
					<dim>1</dim>
					<dim>1</dim>
					<dim>1</dim>
				</port>
			</output>
		</layer>
		<layer id="132" name="FeatureExtractor/MobilenetV1/MobilenetV1/Conv2d_1_depthwise/depthwise/fq_weights_1/mulpiply_by_scale" type="Multiply" version="opset1">
			<data auto_broadcast="numpy"/>
			<input>
				<port id="0">
					<dim>32</dim>
					<dim>1</dim>
					<dim>3</dim>
					<dim>3</dim>
				</port>
				<port id="1">
					<dim>32</dim>
					<dim>1</dim>
					<dim>1</dim>
					<dim>1</dim>
				</port>
			</input>
			<output>
				<port id="2" precision="FP16">
					<dim>32</dim>
					<dim>1</dim>
					<dim>3</dim>
					<dim>3</dim>
				</port>
			</output>
		</layer>
		<layer id="133" name="7338" type="Reshape" version="opset1">
			<data special_zero="true"/>
			<input>
				<port id="0">
					<dim>32</dim>
					<dim>1</dim>
					<dim>3</dim>
					<dim>3</dim>
				</port>
				<port id="1">
					<dim>5</dim>
				</port>
			</input>
			<output>
				<port id="2" precision="FP16">
					<dim>32</dim>
					<dim>1</dim>
					<dim>1</dim>
					<dim>3</dim>
					<dim>3</dim>
				</port>
			</output>
		</layer>
		<layer id="134" name="FeatureExtractor/MobilenetV1/MobilenetV1/Conv2d_1_depthwise/depthwise" type="GroupConvolution" version="opset1">
			<data auto_pad="same_upper" dilations="1,1" pads_begin="0,0" pads_end="0,0" strides="1,1"/>
			<input>
				<port id="0">
					<dim>1</dim>
					<dim>32</dim>
					<dim>150</dim>
					<dim>150</dim>
				</port>
				<port id="1">
					<dim>32</dim>
					<dim>1</dim>
					<dim>1</dim>
					<dim>3</dim>
					<dim>3</dim>
				</port>
			</input>
			<output>
				<port id="2" names="FeatureExtractor/MobilenetV1/MobilenetV1/Conv2d_1_depthwise/BatchNorm/batchnorm/mul_1:0" precision="FP16">
					<dim>1</dim>
					<dim>32</dim>
					<dim>150</dim>
					<dim>150</dim>
				</port>
			</output>
		</layer>
		<layer id="135" name="FeatureExtractor/MobilenetV1/MobilenetV1/Conv2d_1_depthwise/BatchNorm/batchnorm/sub/_162__cf__1653808791" type="Const" version="opset1">
			<data element_type="f16" offset="10393" shape="1,32,1,1" size="64"/>
			<output>
				<port id="0" names="FeatureExtractor/MobilenetV1/MobilenetV1/Conv2d_1_depthwise/BatchNorm/batchnorm/sub/_162__cf__165:0" precision="FP16">
					<dim>1</dim>
					<dim>32</dim>
					<dim>1</dim>
					<dim>1</dim>
				</port>
			</output>
		</layer>
		<layer id="136" name="FeatureExtractor/MobilenetV1/MobilenetV1/Conv2d_1_depthwise/BatchNorm/batchnorm/add_1" type="Add" version="opset1">
			<data auto_broadcast="numpy"/>
			<input>
				<port id="0">
					<dim>1</dim>
					<dim>32</dim>
					<dim>150</dim>
					<dim>150</dim>
				</port>
				<port id="1">
					<dim>1</dim>
					<dim>32</dim>
					<dim>1</dim>
					<dim>1</dim>
				</port>
			</input>
			<output>
				<port id="2" names="FeatureExtractor/MobilenetV1/MobilenetV1/Conv2d_1_depthwise/BatchNorm/batchnorm/add_1:0" precision="FP16">
					<dim>1</dim>
					<dim>32</dim>
					<dim>150</dim>
					<dim>150</dim>
				</port>
			</output>
		</layer>
		<layer id="137" name="FeatureExtractor/MobilenetV1/MobilenetV1/Conv2d_1_depthwise/Relu6" type="Clamp" version="opset1">
			<data max="6" min="0"/>
			<input>
				<port id="0">
					<dim>1</dim>
					<dim>32</dim>
					<dim>150</dim>
					<dim>150</dim>
				</port>
			</input>
			<output>
				<port id="1" names="FeatureExtractor/MobilenetV1/MobilenetV1/Conv2d_1_depthwise/Relu6:0" precision="FP16">
					<dim>1</dim>
					<dim>32</dim>
					<dim>150</dim>
					<dim>150</dim>
				</port>
			</output>
		</layer>
		<layer id="138" name="FeatureExtractor/MobilenetV1/MobilenetV1/Conv2d_1_pointwise/BatchNorm/batchnorm/mul_1/fq_input_0" type="FakeQuantize" version="opset1">
			<data auto_broadcast="numpy" levels="256"/>
			<input>
				<port id="0">
					<dim>1</dim>
					<dim>32</dim>
					<dim>150</dim>
					<dim>150</dim>
				</port>
				<port id="1"/>
				<port id="2"/>
				<port id="3"/>
				<port id="4"/>
			</input>
			<output>
				<port id="5" precision="FP16">
					<dim>1</dim>
					<dim>32</dim>
					<dim>150</dim>
					<dim>150</dim>
				</port>
			</output>
		</layer>
		<layer id="139" name="FeatureExtractor/MobilenetV1/Conv2d_1_pointwise/weights/read/_160__cf__1633834481/quantized50779187" type="Const" version="opset1">
			<data element_type="i8" offset="10457" shape="64,32,1,1" size="2048"/>
			<output>
				<port id="0" precision="I8">
					<dim>64</dim>
					<dim>32</dim>
					<dim>1</dim>
					<dim>1</dim>
				</port>
			</output>
		</layer>
		<layer id="140" name="FeatureExtractor/MobilenetV1/Conv2d_1_pointwise/weights/read/_160__cf__1633834481/quantized/to_f16" type="Convert" version="opset1">
			<data destination_type="f16"/>
			<input>
				<port id="0">
					<dim>64</dim>
					<dim>32</dim>
					<dim>1</dim>
					<dim>1</dim>
				</port>
			</input>
			<output>
				<port id="1" precision="FP16">
					<dim>64</dim>
					<dim>32</dim>
					<dim>1</dim>
					<dim>1</dim>
				</port>
			</output>
		</layer>
		<layer id="141" name="FeatureExtractor/MobilenetV1/MobilenetV1/Conv2d_1_pointwise/BatchNorm/batchnorm/mul_1/fq_weights_1/zero_point50968242" type="Const" version="opset1">
			<data element_type="f16" offset="12505" shape="64,1,1,1" size="128"/>
			<output>
				<port id="0" precision="FP16">
					<dim>64</dim>
					<dim>1</dim>
					<dim>1</dim>
					<dim>1</dim>
				</port>
			</output>
		</layer>
		<layer id="142" name="FeatureExtractor/MobilenetV1/MobilenetV1/Conv2d_1_pointwise/BatchNorm/batchnorm/mul_1/fq_weights_1/minus_zp" type="Subtract" version="opset1">
			<data auto_broadcast="numpy"/>
			<input>
				<port id="0">
					<dim>64</dim>
					<dim>32</dim>
					<dim>1</dim>
					<dim>1</dim>
				</port>
				<port id="1">
					<dim>64</dim>
					<dim>1</dim>
					<dim>1</dim>
					<dim>1</dim>
				</port>
			</input>
			<output>
				<port id="2" precision="FP16">
					<dim>64</dim>
					<dim>32</dim>
					<dim>1</dim>
					<dim>1</dim>
				</port>
			</output>
		</layer>
		<layer id="143" name="FeatureExtractor/MobilenetV1/MobilenetV1/Conv2d_1_pointwise/BatchNorm/batchnorm/mul_1/fq_weights_1/scale50858329" type="Const" version="opset1">
			<data element_type="f16" offset="12633" shape="64,1,1,1" size="128"/>
			<output>
				<port id="0" precision="FP16">
					<dim>64</dim>
					<dim>1</dim>
					<dim>1</dim>
					<dim>1</dim>
				</port>
			</output>
		</layer>
		<layer id="144" name="FeatureExtractor/MobilenetV1/MobilenetV1/Conv2d_1_pointwise/BatchNorm/batchnorm/mul_1/fq_weights_1/mulpiply_by_scale" type="Multiply" version="opset1">
			<data auto_broadcast="numpy"/>
			<input>
				<port id="0">
					<dim>64</dim>
					<dim>32</dim>
					<dim>1</dim>
					<dim>1</dim>
				</port>
				<port id="1">
					<dim>64</dim>
					<dim>1</dim>
					<dim>1</dim>
					<dim>1</dim>
				</port>
			</input>
			<output>
				<port id="2" precision="FP16">
					<dim>64</dim>
					<dim>32</dim>
					<dim>1</dim>
					<dim>1</dim>
				</port>
			</output>
		</layer>
		<layer id="145" name="FeatureExtractor/MobilenetV1/MobilenetV1/Conv2d_1_pointwise/BatchNorm/batchnorm/mul_1" type="Convolution" version="opset1">
			<data auto_pad="same_upper" dilations="1,1" pads_begin="0,0" pads_end="0,0" strides="1,1"/>
			<input>
				<port id="0">
					<dim>1</dim>
					<dim>32</dim>
					<dim>150</dim>
					<dim>150</dim>
				</port>
				<port id="1">
					<dim>64</dim>
					<dim>32</dim>
					<dim>1</dim>
					<dim>1</dim>
				</port>
			</input>
			<output>
				<port id="2" names="FeatureExtractor/MobilenetV1/MobilenetV1/Conv2d_1_pointwise/BatchNorm/batchnorm/mul_1:0" precision="FP16">
					<dim>1</dim>
					<dim>64</dim>
					<dim>150</dim>
					<dim>150</dim>
				</port>
			</output>
		</layer>
		<layer id="146" name="FeatureExtractor/MobilenetV1/MobilenetV1/Conv2d_1_pointwise/BatchNorm/batchnorm/sub/_159__cf__1623859361" type="Const" version="opset1">
			<data element_type="f16" offset="12761" shape="1,64,1,1" size="128"/>
			<output>
				<port id="0" names="FeatureExtractor/MobilenetV1/MobilenetV1/Conv2d_1_pointwise/BatchNorm/batchnorm/sub/_159__cf__162:0" precision="FP16">
					<dim>1</dim>
					<dim>64</dim>
					<dim>1</dim>
					<dim>1</dim>
				</port>
			</output>
		</layer>
		<layer id="147" name="FeatureExtractor/MobilenetV1/MobilenetV1/Conv2d_1_pointwise/BatchNorm/batchnorm/add_1" type="Add" version="opset1">
			<data auto_broadcast="numpy"/>
			<input>
				<port id="0">
					<dim>1</dim>
					<dim>64</dim>
					<dim>150</dim>
					<dim>150</dim>
				</port>
				<port id="1">
					<dim>1</dim>
					<dim>64</dim>
					<dim>1</dim>
					<dim>1</dim>
				</port>
			</input>
			<output>
				<port id="2" names="FeatureExtractor/MobilenetV1/MobilenetV1/Conv2d_1_pointwise/BatchNorm/batchnorm/add_1:0" precision="FP16">
					<dim>1</dim>
					<dim>64</dim>
					<dim>150</dim>
					<dim>150</dim>
				</port>
			</output>
		</layer>
		<layer id="148" name="FeatureExtractor/MobilenetV1/MobilenetV1/Conv2d_1_pointwise/Relu6" type="Clamp" version="opset1">
			<data max="6" min="0"/>
			<input>
				<port id="0">
					<dim>1</dim>
					<dim>64</dim>
					<dim>150</dim>
					<dim>150</dim>
				</port>
			</input>
			<output>
				<port id="1" names="FeatureExtractor/MobilenetV1/MobilenetV1/Conv2d_1_pointwise/Relu6:0" precision="FP16">
					<dim>1</dim>
					<dim>64</dim>
					<dim>150</dim>
					<dim>150</dim>
				</port>
			</output>
		</layer>
		<layer id="149" name="FeatureExtractor/MobilenetV1/MobilenetV1/Conv2d_2_depthwise/depthwise/fq_input_0" type="FakeQuantize" version="opset1">
			<data auto_broadcast="numpy" levels="256"/>
			<input>
				<port id="0">
					<dim>1</dim>
					<dim>64</dim>
					<dim>150</dim>
					<dim>150</dim>
				</port>
				<port id="1">
					<dim>1</dim>
					<dim>64</dim>
					<dim>1</dim>
					<dim>1</dim>
				</port>
				<port id="2">
					<dim>1</dim>
					<dim>64</dim>
					<dim>1</dim>
					<dim>1</dim>
				</port>
				<port id="3">
					<dim>1</dim>
					<dim>64</dim>
					<dim>1</dim>
					<dim>1</dim>
				</port>
				<port id="4">
					<dim>1</dim>
					<dim>64</dim>
					<dim>1</dim>
					<dim>1</dim>
				</port>
			</input>
			<output>
				<port id="5" precision="FP16">
					<dim>1</dim>
					<dim>64</dim>
					<dim>150</dim>
					<dim>150</dim>
				</port>
			</output>
		</layer>
		<layer id="150" name="7342/value73449379" type="Const" version="opset1">
			<data element_type="i64" offset="12889" shape="5" size="40"/>
			<output>
				<port id="0" precision="I64">
					<dim>5</dim>
				</port>
			</output>
		</layer>
		<layer id="151" name="FeatureExtractor/MobilenetV1/MobilenetV1/Conv2d_2_depthwise/BatchNorm/batchnorm/mul_1_copy3884483/quantized61879034" type="Const" version="opset1">
			<data element_type="i8" offset="12929" shape="64,1,3,3" size="576"/>
			<output>
				<port id="0" precision="I8">
					<dim>64</dim>
					<dim>1</dim>
					<dim>3</dim>
					<dim>3</dim>
				</port>
			</output>
		</layer>
		<layer id="152" name="FeatureExtractor/MobilenetV1/MobilenetV1/Conv2d_2_depthwise/BatchNorm/batchnorm/mul_1_copy3884483/quantized/to_f16" type="Convert" version="opset1">
			<data destination_type="f16"/>
			<input>
				<port id="0">
					<dim>64</dim>
					<dim>1</dim>
					<dim>3</dim>
					<dim>3</dim>
				</port>
			</input>
			<output>
				<port id="1" precision="FP16">
					<dim>64</dim>
					<dim>1</dim>
					<dim>3</dim>
					<dim>3</dim>
				</port>
			</output>
		</layer>
		<layer id="153" name="FeatureExtractor/MobilenetV1/MobilenetV1/Conv2d_2_depthwise/depthwise/fq_weights_1/zero_point62068755" type="Const" version="opset1">
			<data element_type="f16" offset="13505" shape="64,1,1,1" size="128"/>
			<output>
				<port id="0" precision="FP16">
					<dim>64</dim>
					<dim>1</dim>
					<dim>1</dim>
					<dim>1</dim>
				</port>
			</output>
		</layer>
		<layer id="154" name="FeatureExtractor/MobilenetV1/MobilenetV1/Conv2d_2_depthwise/depthwise/fq_weights_1/minus_zp" type="Subtract" version="opset1">
			<data auto_broadcast="numpy"/>
			<input>
				<port id="0">
					<dim>64</dim>
					<dim>1</dim>
					<dim>3</dim>
					<dim>3</dim>
				</port>
				<port id="1">
					<dim>64</dim>
					<dim>1</dim>
					<dim>1</dim>
					<dim>1</dim>
				</port>
			</input>
			<output>
				<port id="2" precision="FP16">
					<dim>64</dim>
					<dim>1</dim>
					<dim>3</dim>
					<dim>3</dim>
				</port>
			</output>
		</layer>
		<layer id="155" name="FeatureExtractor/MobilenetV1/MobilenetV1/Conv2d_2_depthwise/depthwise/fq_weights_1/scale61958254" type="Const" version="opset1">
			<data element_type="f16" offset="13633" shape="64,1,1,1" size="128"/>
			<output>
				<port id="0" precision="FP16">
					<dim>64</dim>
					<dim>1</dim>
					<dim>1</dim>
					<dim>1</dim>
				</port>
			</output>
		</layer>
		<layer id="156" name="FeatureExtractor/MobilenetV1/MobilenetV1/Conv2d_2_depthwise/depthwise/fq_weights_1/mulpiply_by_scale" type="Multiply" version="opset1">
			<data auto_broadcast="numpy"/>
			<input>
				<port id="0">
					<dim>64</dim>
					<dim>1</dim>
					<dim>3</dim>
					<dim>3</dim>
				</port>
				<port id="1">
					<dim>64</dim>
					<dim>1</dim>
					<dim>1</dim>
					<dim>1</dim>
				</port>
			</input>
			<output>
				<port id="2" precision="FP16">
					<dim>64</dim>
					<dim>1</dim>
					<dim>3</dim>
					<dim>3</dim>
				</port>
			</output>
		</layer>
		<layer id="157" name="7342" type="Reshape" version="opset1">
			<data special_zero="true"/>
			<input>
				<port id="0">
					<dim>64</dim>
					<dim>1</dim>
					<dim>3</dim>
					<dim>3</dim>
				</port>
				<port id="1">
					<dim>5</dim>
				</port>
			</input>
			<output>
				<port id="2" precision="FP16">
					<dim>64</dim>
					<dim>1</dim>
					<dim>1</dim>
					<dim>3</dim>
					<dim>3</dim>
				</port>
			</output>
		</layer>
		<layer id="158" name="FeatureExtractor/MobilenetV1/MobilenetV1/Conv2d_2_depthwise/depthwise" type="GroupConvolution" version="opset1">
			<data auto_pad="same_upper" dilations="1,1" pads_begin="0,0" pads_end="0,0" strides="2,2"/>
			<input>
				<port id="0">
					<dim>1</dim>
					<dim>64</dim>
					<dim>150</dim>
					<dim>150</dim>
				</port>
				<port id="1">
					<dim>64</dim>
					<dim>1</dim>
					<dim>1</dim>
					<dim>3</dim>
					<dim>3</dim>
				</port>
			</input>
			<output>
				<port id="2" names="FeatureExtractor/MobilenetV1/MobilenetV1/Conv2d_2_depthwise/BatchNorm/batchnorm/mul_1:0" precision="FP16">
					<dim>1</dim>
					<dim>64</dim>
					<dim>75</dim>
					<dim>75</dim>
				</port>
			</output>
		</layer>
		<layer id="159" name="FeatureExtractor/MobilenetV1/MobilenetV1/Conv2d_2_depthwise/BatchNorm/batchnorm/sub/_156__cf__1593909028" type="Const" version="opset1">
			<data element_type="f16" offset="13761" shape="1,64,1,1" size="128"/>
			<output>
				<port id="0" names="FeatureExtractor/MobilenetV1/MobilenetV1/Conv2d_2_depthwise/BatchNorm/batchnorm/sub/_156__cf__159:0" precision="FP16">
					<dim>1</dim>
					<dim>64</dim>
					<dim>1</dim>
					<dim>1</dim>
				</port>
			</output>
		</layer>
		<layer id="160" name="FeatureExtractor/MobilenetV1/MobilenetV1/Conv2d_2_depthwise/BatchNorm/batchnorm/add_1" type="Add" version="opset1">
			<data auto_broadcast="numpy"/>
			<input>
				<port id="0">
					<dim>1</dim>
					<dim>64</dim>
					<dim>75</dim>
					<dim>75</dim>
				</port>
				<port id="1">
					<dim>1</dim>
					<dim>64</dim>
					<dim>1</dim>
					<dim>1</dim>
				</port>
			</input>
			<output>
				<port id="2" names="FeatureExtractor/MobilenetV1/MobilenetV1/Conv2d_2_depthwise/BatchNorm/batchnorm/add_1:0" precision="FP16">
					<dim>1</dim>
					<dim>64</dim>
					<dim>75</dim>
					<dim>75</dim>
				</port>
			</output>
		</layer>
		<layer id="161" name="FeatureExtractor/MobilenetV1/MobilenetV1/Conv2d_2_depthwise/Relu6" type="Clamp" version="opset1">
			<data max="6" min="0"/>
			<input>
				<port id="0">
					<dim>1</dim>
					<dim>64</dim>
					<dim>75</dim>
					<dim>75</dim>
				</port>
			</input>
			<output>
				<port id="1" names="FeatureExtractor/MobilenetV1/MobilenetV1/Conv2d_2_depthwise/Relu6:0" precision="FP16">
					<dim>1</dim>
					<dim>64</dim>
					<dim>75</dim>
					<dim>75</dim>
				</port>
			</output>
		</layer>
		<layer id="162" name="FeatureExtractor/MobilenetV1/MobilenetV1/Conv2d_2_pointwise/BatchNorm/batchnorm/mul_1/fq_input_0" type="FakeQuantize" version="opset1">
			<data auto_broadcast="numpy" levels="256"/>
			<input>
				<port id="0">
					<dim>1</dim>
					<dim>64</dim>
					<dim>75</dim>
					<dim>75</dim>
				</port>
				<port id="1"/>
				<port id="2"/>
				<port id="3"/>
				<port id="4"/>
			</input>
			<output>
				<port id="5" precision="FP16">
					<dim>1</dim>
					<dim>64</dim>
					<dim>75</dim>
					<dim>75</dim>
				</port>
			</output>
		</layer>
		<layer id="163" name="FeatureExtractor/MobilenetV1/Conv2d_2_pointwise/weights/read/_154__cf__1573934485/quantized52879334" type="Const" version="opset1">
			<data element_type="i8" offset="13889" shape="128,64,1,1" size="8192"/>
			<output>
				<port id="0" precision="I8">
					<dim>128</dim>
					<dim>64</dim>
					<dim>1</dim>
					<dim>1</dim>
				</port>
			</output>
		</layer>
		<layer id="164" name="FeatureExtractor/MobilenetV1/Conv2d_2_pointwise/weights/read/_154__cf__1573934485/quantized/to_f16" type="Convert" version="opset1">
			<data destination_type="f16"/>
			<input>
				<port id="0">
					<dim>128</dim>
					<dim>64</dim>
					<dim>1</dim>
					<dim>1</dim>
				</port>
			</input>
			<output>
				<port id="1" precision="FP16">
					<dim>128</dim>
					<dim>64</dim>
					<dim>1</dim>
					<dim>1</dim>
				</port>
			</output>
		</layer>
		<layer id="165" name="FeatureExtractor/MobilenetV1/MobilenetV1/Conv2d_2_pointwise/BatchNorm/batchnorm/mul_1/fq_weights_1/zero_point53068398" type="Const" version="opset1">
			<data element_type="f16" offset="22081" shape="128,1,1,1" size="256"/>
			<output>
				<port id="0" precision="FP16">
					<dim>128</dim>
					<dim>1</dim>
					<dim>1</dim>
					<dim>1</dim>
				</port>
			</output>
		</layer>
		<layer id="166" name="FeatureExtractor/MobilenetV1/MobilenetV1/Conv2d_2_pointwise/BatchNorm/batchnorm/mul_1/fq_weights_1/minus_zp" type="Subtract" version="opset1">
			<data auto_broadcast="numpy"/>
			<input>
				<port id="0">
					<dim>128</dim>
					<dim>64</dim>
					<dim>1</dim>
					<dim>1</dim>
				</port>
				<port id="1">
					<dim>128</dim>
					<dim>1</dim>
					<dim>1</dim>
					<dim>1</dim>
				</port>
			</input>
			<output>
				<port id="2" precision="FP16">
					<dim>128</dim>
					<dim>64</dim>
					<dim>1</dim>
					<dim>1</dim>
				</port>
			</output>
		</layer>
		<layer id="167" name="FeatureExtractor/MobilenetV1/MobilenetV1/Conv2d_2_pointwise/BatchNorm/batchnorm/mul_1/fq_weights_1/scale52958491" type="Const" version="opset1">
			<data element_type="f16" offset="22337" shape="128,1,1,1" size="256"/>
			<output>
				<port id="0" precision="FP16">
					<dim>128</dim>
					<dim>1</dim>
					<dim>1</dim>
					<dim>1</dim>
				</port>
			</output>
		</layer>
		<layer id="168" name="FeatureExtractor/MobilenetV1/MobilenetV1/Conv2d_2_pointwise/BatchNorm/batchnorm/mul_1/fq_weights_1/mulpiply_by_scale" type="Multiply" version="opset1">
			<data auto_broadcast="numpy"/>
			<input>
				<port id="0">
					<dim>128</dim>
					<dim>64</dim>
					<dim>1</dim>
					<dim>1</dim>
				</port>
				<port id="1">
					<dim>128</dim>
					<dim>1</dim>
					<dim>1</dim>
					<dim>1</dim>
				</port>
			</input>
			<output>
				<port id="2" precision="FP16">
					<dim>128</dim>
					<dim>64</dim>
					<dim>1</dim>
					<dim>1</dim>
				</port>
			</output>
		</layer>
		<layer id="169" name="FeatureExtractor/MobilenetV1/MobilenetV1/Conv2d_2_pointwise/BatchNorm/batchnorm/mul_1" type="Convolution" version="opset1">
			<data auto_pad="same_upper" dilations="1,1" pads_begin="0,0" pads_end="0,0" strides="1,1"/>
			<input>
				<port id="0">
					<dim>1</dim>
					<dim>64</dim>
					<dim>75</dim>
					<dim>75</dim>
				</port>
				<port id="1">
					<dim>128</dim>
					<dim>64</dim>
					<dim>1</dim>
					<dim>1</dim>
				</port>
			</input>
			<output>
				<port id="2" names="FeatureExtractor/MobilenetV1/MobilenetV1/Conv2d_2_pointwise/BatchNorm/batchnorm/mul_1:0" precision="FP16">
					<dim>1</dim>
					<dim>128</dim>
					<dim>75</dim>
					<dim>75</dim>
				</port>
			</output>
		</layer>
		<layer id="170" name="FeatureExtractor/MobilenetV1/MobilenetV1/Conv2d_2_pointwise/BatchNorm/batchnorm/sub/_153__cf__1563959403" type="Const" version="opset1">
			<data element_type="f16" offset="22593" shape="1,128,1,1" size="256"/>
			<output>
				<port id="0" names="FeatureExtractor/MobilenetV1/MobilenetV1/Conv2d_2_pointwise/BatchNorm/batchnorm/sub/_153__cf__156:0" precision="FP16">
					<dim>1</dim>
					<dim>128</dim>
					<dim>1</dim>
					<dim>1</dim>
				</port>
			</output>
		</layer>
		<layer id="171" name="FeatureExtractor/MobilenetV1/MobilenetV1/Conv2d_2_pointwise/BatchNorm/batchnorm/add_1" type="Add" version="opset1">
			<data auto_broadcast="numpy"/>
			<input>
				<port id="0">
					<dim>1</dim>
					<dim>128</dim>
					<dim>75</dim>
					<dim>75</dim>
				</port>
				<port id="1">
					<dim>1</dim>
					<dim>128</dim>
					<dim>1</dim>
					<dim>1</dim>
				</port>
			</input>
			<output>
				<port id="2" names="FeatureExtractor/MobilenetV1/MobilenetV1/Conv2d_2_pointwise/BatchNorm/batchnorm/add_1:0" precision="FP16">
					<dim>1</dim>
					<dim>128</dim>
					<dim>75</dim>
					<dim>75</dim>
				</port>
			</output>
		</layer>
		<layer id="172" name="FeatureExtractor/MobilenetV1/MobilenetV1/Conv2d_2_pointwise/Relu6" type="Clamp" version="opset1">
			<data max="6" min="0"/>
			<input>
				<port id="0">
					<dim>1</dim>
					<dim>128</dim>
					<dim>75</dim>
					<dim>75</dim>
				</port>
			</input>
			<output>
				<port id="1" names="FeatureExtractor/MobilenetV1/MobilenetV1/Conv2d_2_pointwise/Relu6:0" precision="FP16">
					<dim>1</dim>
					<dim>128</dim>
					<dim>75</dim>
					<dim>75</dim>
				</port>
			</output>
		</layer>
		<layer id="173" name="FeatureExtractor/MobilenetV1/MobilenetV1/Conv2d_3_depthwise/depthwise/fq_input_0" type="FakeQuantize" version="opset1">
			<data auto_broadcast="numpy" levels="256"/>
			<input>
				<port id="0">
					<dim>1</dim>
					<dim>128</dim>
					<dim>75</dim>
					<dim>75</dim>
				</port>
				<port id="1">
					<dim>1</dim>
					<dim>128</dim>
					<dim>1</dim>
					<dim>1</dim>
				</port>
				<port id="2">
					<dim>1</dim>
					<dim>128</dim>
					<dim>1</dim>
					<dim>1</dim>
				</port>
				<port id="3">
					<dim>1</dim>
					<dim>128</dim>
					<dim>1</dim>
					<dim>1</dim>
				</port>
				<port id="4">
					<dim>1</dim>
					<dim>128</dim>
					<dim>1</dim>
					<dim>1</dim>
				</port>
			</input>
			<output>
				<port id="5" precision="FP16">
					<dim>1</dim>
					<dim>128</dim>
					<dim>75</dim>
					<dim>75</dim>
				</port>
			</output>
		</layer>
		<layer id="174" name="7346/value73488971" type="Const" version="opset1">
			<data element_type="i64" offset="22849" shape="5" size="40"/>
			<output>
				<port id="0" precision="I64">
					<dim>5</dim>
				</port>
			</output>
		</layer>
		<layer id="175" name="FeatureExtractor/MobilenetV1/MobilenetV1/Conv2d_3_depthwise/BatchNorm/batchnorm/mul_1_copy3984487/quantized53478641" type="Const" version="opset1">
			<data element_type="i8" offset="22889" shape="128,1,3,3" size="1152"/>
			<output>
				<port id="0" precision="I8">
					<dim>128</dim>
					<dim>1</dim>
					<dim>3</dim>
					<dim>3</dim>
				</port>
			</output>
		</layer>
		<layer id="176" name="FeatureExtractor/MobilenetV1/MobilenetV1/Conv2d_3_depthwise/BatchNorm/batchnorm/mul_1_copy3984487/quantized/to_f16" type="Convert" version="opset1">
			<data destination_type="f16"/>
			<input>
				<port id="0">
					<dim>128</dim>
					<dim>1</dim>
					<dim>3</dim>
					<dim>3</dim>
				</port>
			</input>
			<output>
				<port id="1" precision="FP16">
					<dim>128</dim>
					<dim>1</dim>
					<dim>3</dim>
					<dim>3</dim>
				</port>
			</output>
		</layer>
		<layer id="177" name="FeatureExtractor/MobilenetV1/MobilenetV1/Conv2d_3_depthwise/depthwise/fq_weights_1/zero_point53668983" type="Const" version="opset1">
			<data element_type="f16" offset="24041" shape="128,1,1,1" size="256"/>
			<output>
				<port id="0" precision="FP16">
					<dim>128</dim>
					<dim>1</dim>
					<dim>1</dim>
					<dim>1</dim>
				</port>
			</output>
		</layer>
		<layer id="178" name="FeatureExtractor/MobilenetV1/MobilenetV1/Conv2d_3_depthwise/depthwise/fq_weights_1/minus_zp" type="Subtract" version="opset1">
			<data auto_broadcast="numpy"/>
			<input>
				<port id="0">
					<dim>128</dim>
					<dim>1</dim>
					<dim>3</dim>
					<dim>3</dim>
				</port>
				<port id="1">
					<dim>128</dim>
					<dim>1</dim>
					<dim>1</dim>
					<dim>1</dim>
				</port>
			</input>
			<output>
				<port id="2" precision="FP16">
					<dim>128</dim>
					<dim>1</dim>
					<dim>3</dim>
					<dim>3</dim>
				</port>
			</output>
		</layer>
		<layer id="179" name="FeatureExtractor/MobilenetV1/MobilenetV1/Conv2d_3_depthwise/depthwise/fq_weights_1/scale53559442" type="Const" version="opset1">
			<data element_type="f16" offset="24297" shape="128,1,1,1" size="256"/>
			<output>
				<port id="0" precision="FP16">
					<dim>128</dim>
					<dim>1</dim>
					<dim>1</dim>
					<dim>1</dim>
				</port>
			</output>
		</layer>
		<layer id="180" name="FeatureExtractor/MobilenetV1/MobilenetV1/Conv2d_3_depthwise/depthwise/fq_weights_1/mulpiply_by_scale" type="Multiply" version="opset1">
			<data auto_broadcast="numpy"/>
			<input>
				<port id="0">
					<dim>128</dim>
					<dim>1</dim>
					<dim>3</dim>
					<dim>3</dim>
				</port>
				<port id="1">
					<dim>128</dim>
					<dim>1</dim>
					<dim>1</dim>
					<dim>1</dim>
				</port>
			</input>
			<output>
				<port id="2" precision="FP16">
					<dim>128</dim>
					<dim>1</dim>
					<dim>3</dim>
					<dim>3</dim>
				</port>
			</output>
		</layer>
		<layer id="181" name="7346" type="Reshape" version="opset1">
			<data special_zero="true"/>
			<input>
				<port id="0">
					<dim>128</dim>
					<dim>1</dim>
					<dim>3</dim>
					<dim>3</dim>
				</port>
				<port id="1">
					<dim>5</dim>
				</port>
			</input>
			<output>
				<port id="2" precision="FP16">
					<dim>128</dim>
					<dim>1</dim>
					<dim>1</dim>
					<dim>3</dim>
					<dim>3</dim>
				</port>
			</output>
		</layer>
		<layer id="182" name="FeatureExtractor/MobilenetV1/MobilenetV1/Conv2d_3_depthwise/depthwise" type="GroupConvolution" version="opset1">
			<data auto_pad="same_upper" dilations="1,1" pads_begin="0,0" pads_end="0,0" strides="1,1"/>
			<input>
				<port id="0">
					<dim>1</dim>
					<dim>128</dim>
					<dim>75</dim>
					<dim>75</dim>
				</port>
				<port id="1">
					<dim>128</dim>
					<dim>1</dim>
					<dim>1</dim>
					<dim>3</dim>
					<dim>3</dim>
				</port>
			</input>
			<output>
				<port id="2" names="FeatureExtractor/MobilenetV1/MobilenetV1/Conv2d_3_depthwise/BatchNorm/batchnorm/mul_1:0" precision="FP16">
					<dim>1</dim>
					<dim>128</dim>
					<dim>75</dim>
					<dim>75</dim>
				</port>
			</output>
		</layer>
		<layer id="183" name="FeatureExtractor/MobilenetV1/MobilenetV1/Conv2d_3_depthwise/BatchNorm/batchnorm/sub/_150__cf__1534009175" type="Const" version="opset1">
			<data element_type="f16" offset="24553" shape="1,128,1,1" size="256"/>
			<output>
				<port id="0" names="FeatureExtractor/MobilenetV1/MobilenetV1/Conv2d_3_depthwise/BatchNorm/batchnorm/sub/_150__cf__153:0" precision="FP16">
					<dim>1</dim>
					<dim>128</dim>
					<dim>1</dim>
					<dim>1</dim>
				</port>
			</output>
		</layer>
		<layer id="184" name="FeatureExtractor/MobilenetV1/MobilenetV1/Conv2d_3_depthwise/BatchNorm/batchnorm/add_1" type="Add" version="opset1">
			<data auto_broadcast="numpy"/>
			<input>
				<port id="0">
					<dim>1</dim>
					<dim>128</dim>
					<dim>75</dim>
					<dim>75</dim>
				</port>
				<port id="1">
					<dim>1</dim>
					<dim>128</dim>
					<dim>1</dim>
					<dim>1</dim>
				</port>
			</input>
			<output>
				<port id="2" names="FeatureExtractor/MobilenetV1/MobilenetV1/Conv2d_3_depthwise/BatchNorm/batchnorm/add_1:0" precision="FP16">
					<dim>1</dim>
					<dim>128</dim>
					<dim>75</dim>
					<dim>75</dim>
				</port>
			</output>
		</layer>
		<layer id="185" name="FeatureExtractor/MobilenetV1/MobilenetV1/Conv2d_3_depthwise/Relu6" type="Clamp" version="opset1">
			<data max="6" min="0"/>
			<input>
				<port id="0">
					<dim>1</dim>
					<dim>128</dim>
					<dim>75</dim>
					<dim>75</dim>
				</port>
			</input>
			<output>
				<port id="1" names="FeatureExtractor/MobilenetV1/MobilenetV1/Conv2d_3_depthwise/Relu6:0" precision="FP16">
					<dim>1</dim>
					<dim>128</dim>
					<dim>75</dim>
					<dim>75</dim>
				</port>
			</output>
		</layer>
		<layer id="186" name="FeatureExtractor/MobilenetV1/MobilenetV1/Conv2d_3_pointwise/BatchNorm/batchnorm/mul_1/fq_input_0" type="FakeQuantize" version="opset1">
			<data auto_broadcast="numpy" levels="256"/>
			<input>
				<port id="0">
					<dim>1</dim>
					<dim>128</dim>
					<dim>75</dim>
					<dim>75</dim>
				</port>
				<port id="1"/>
				<port id="2"/>
				<port id="3"/>
				<port id="4"/>
			</input>
			<output>
				<port id="5" precision="FP16">
					<dim>1</dim>
					<dim>128</dim>
					<dim>75</dim>
					<dim>75</dim>
				</port>
			</output>
		</layer>
		<layer id="187" name="FeatureExtractor/MobilenetV1/Conv2d_3_pointwise/weights/read/_148__cf__1514034489/quantized53179079" type="Const" version="opset1">
			<data element_type="i8" offset="24809" shape="128,128,1,1" size="16384"/>
			<output>
				<port id="0" precision="I8">
					<dim>128</dim>
					<dim>128</dim>
					<dim>1</dim>
					<dim>1</dim>
				</port>
			</output>
		</layer>
		<layer id="188" name="FeatureExtractor/MobilenetV1/Conv2d_3_pointwise/weights/read/_148__cf__1514034489/quantized/to_f16" type="Convert" version="opset1">
			<data destination_type="f16"/>
			<input>
				<port id="0">
					<dim>128</dim>
					<dim>128</dim>
					<dim>1</dim>
					<dim>1</dim>
				</port>
			</input>
			<output>
				<port id="1" precision="FP16">
					<dim>128</dim>
					<dim>128</dim>
					<dim>1</dim>
					<dim>1</dim>
				</port>
			</output>
		</layer>
		<layer id="189" name="FeatureExtractor/MobilenetV1/MobilenetV1/Conv2d_3_pointwise/BatchNorm/batchnorm/mul_1/fq_weights_1/zero_point53368503" type="Const" version="opset1">
			<data element_type="f16" offset="41193" shape="128,1,1,1" size="256"/>
			<output>
				<port id="0" precision="FP16">
					<dim>128</dim>
					<dim>1</dim>
					<dim>1</dim>
					<dim>1</dim>
				</port>
			</output>
		</layer>
		<layer id="190" name="FeatureExtractor/MobilenetV1/MobilenetV1/Conv2d_3_pointwise/BatchNorm/batchnorm/mul_1/fq_weights_1/minus_zp" type="Subtract" version="opset1">
			<data auto_broadcast="numpy"/>
			<input>
				<port id="0">
					<dim>128</dim>
					<dim>128</dim>
					<dim>1</dim>
					<dim>1</dim>
				</port>
				<port id="1">
					<dim>128</dim>
					<dim>1</dim>
					<dim>1</dim>
					<dim>1</dim>
				</port>
			</input>
			<output>
				<port id="2" precision="FP16">
					<dim>128</dim>
					<dim>128</dim>
					<dim>1</dim>
					<dim>1</dim>
				</port>
			</output>
		</layer>
		<layer id="191" name="FeatureExtractor/MobilenetV1/MobilenetV1/Conv2d_3_pointwise/BatchNorm/batchnorm/mul_1/fq_weights_1/scale53258335" type="Const" version="opset1">
			<data element_type="f16" offset="41449" shape="128,1,1,1" size="256"/>
			<output>
				<port id="0" precision="FP16">
					<dim>128</dim>
					<dim>1</dim>
					<dim>1</dim>
					<dim>1</dim>
				</port>
			</output>
		</layer>
		<layer id="192" name="FeatureExtractor/MobilenetV1/MobilenetV1/Conv2d_3_pointwise/BatchNorm/batchnorm/mul_1/fq_weights_1/mulpiply_by_scale" type="Multiply" version="opset1">
			<data auto_broadcast="numpy"/>
			<input>
				<port id="0">
					<dim>128</dim>
					<dim>128</dim>
					<dim>1</dim>
					<dim>1</dim>
				</port>
				<port id="1">
					<dim>128</dim>
					<dim>1</dim>
					<dim>1</dim>
					<dim>1</dim>
				</port>
			</input>
			<output>
				<port id="2" precision="FP16">
					<dim>128</dim>
					<dim>128</dim>
					<dim>1</dim>
					<dim>1</dim>
				</port>
			</output>
		</layer>
		<layer id="193" name="FeatureExtractor/MobilenetV1/MobilenetV1/Conv2d_3_pointwise/BatchNorm/batchnorm/mul_1" type="Convolution" version="opset1">
			<data auto_pad="same_upper" dilations="1,1" pads_begin="0,0" pads_end="0,0" strides="1,1"/>
			<input>
				<port id="0">
					<dim>1</dim>
					<dim>128</dim>
					<dim>75</dim>
					<dim>75</dim>
				</port>
				<port id="1">
					<dim>128</dim>
					<dim>128</dim>
					<dim>1</dim>
					<dim>1</dim>
				</port>
			</input>
			<output>
				<port id="2" names="FeatureExtractor/MobilenetV1/MobilenetV1/Conv2d_3_pointwise/BatchNorm/batchnorm/mul_1:0" precision="FP16">
					<dim>1</dim>
					<dim>128</dim>
					<dim>75</dim>
					<dim>75</dim>
				</port>
			</output>
		</layer>
		<layer id="194" name="FeatureExtractor/MobilenetV1/MobilenetV1/Conv2d_3_pointwise/BatchNorm/batchnorm/sub/_147__cf__1504058410" type="Const" version="opset1">
			<data element_type="f16" offset="41705" shape="1,128,1,1" size="256"/>
			<output>
				<port id="0" names="FeatureExtractor/MobilenetV1/MobilenetV1/Conv2d_3_pointwise/BatchNorm/batchnorm/sub/_147__cf__150:0" precision="FP16">
					<dim>1</dim>
					<dim>128</dim>
					<dim>1</dim>
					<dim>1</dim>
				</port>
			</output>
		</layer>
		<layer id="195" name="FeatureExtractor/MobilenetV1/MobilenetV1/Conv2d_3_pointwise/BatchNorm/batchnorm/add_1" type="Add" version="opset1">
			<data auto_broadcast="numpy"/>
			<input>
				<port id="0">
					<dim>1</dim>
					<dim>128</dim>
					<dim>75</dim>
					<dim>75</dim>
				</port>
				<port id="1">
					<dim>1</dim>
					<dim>128</dim>
					<dim>1</dim>
					<dim>1</dim>
				</port>
			</input>
			<output>
				<port id="2" names="FeatureExtractor/MobilenetV1/MobilenetV1/Conv2d_3_pointwise/BatchNorm/batchnorm/add_1:0" precision="FP16">
					<dim>1</dim>
					<dim>128</dim>
					<dim>75</dim>
					<dim>75</dim>
				</port>
			</output>
		</layer>
		<layer id="196" name="FeatureExtractor/MobilenetV1/MobilenetV1/Conv2d_3_pointwise/Relu6" type="Clamp" version="opset1">
			<data max="6" min="0"/>
			<input>
				<port id="0">
					<dim>1</dim>
					<dim>128</dim>
					<dim>75</dim>
					<dim>75</dim>
				</port>
			</input>
			<output>
				<port id="1" names="FeatureExtractor/MobilenetV1/MobilenetV1/Conv2d_3_pointwise/Relu6:0" precision="FP16">
					<dim>1</dim>
					<dim>128</dim>
					<dim>75</dim>
					<dim>75</dim>
				</port>
			</output>
		</layer>
		<layer id="197" name="FeatureExtractor/MobilenetV1/MobilenetV1/Conv2d_4_depthwise/depthwise/fq_input_0" type="FakeQuantize" version="opset1">
			<data auto_broadcast="numpy" levels="256"/>
			<input>
				<port id="0">
					<dim>1</dim>
					<dim>128</dim>
					<dim>75</dim>
					<dim>75</dim>
				</port>
				<port id="1">
					<dim>1</dim>
					<dim>128</dim>
					<dim>1</dim>
					<dim>1</dim>
				</port>
				<port id="2">
					<dim>1</dim>
					<dim>128</dim>
					<dim>1</dim>
					<dim>1</dim>
				</port>
				<port id="3">
					<dim>1</dim>
					<dim>128</dim>
					<dim>1</dim>
					<dim>1</dim>
				</port>
				<port id="4">
					<dim>1</dim>
					<dim>128</dim>
					<dim>1</dim>
					<dim>1</dim>
				</port>
			</input>
			<output>
				<port id="5" precision="FP16">
					<dim>1</dim>
					<dim>128</dim>
					<dim>75</dim>
					<dim>75</dim>
				</port>
			</output>
		</layer>
		<layer id="198" name="7350/value73529007" type="Const" version="opset1">
			<data element_type="i64" offset="22849" shape="5" size="40"/>
			<output>
				<port id="0" precision="I64">
					<dim>5</dim>
				</port>
			</output>
		</layer>
		<layer id="199" name="FeatureExtractor/MobilenetV1/MobilenetV1/Conv2d_4_depthwise/BatchNorm/batchnorm/mul_1_copy4084491/quantized55579487" type="Const" version="opset1">
			<data element_type="i8" offset="41961" shape="128,1,3,3" size="1152"/>
			<output>
				<port id="0" precision="I8">
					<dim>128</dim>
					<dim>1</dim>
					<dim>3</dim>
					<dim>3</dim>
				</port>
			</output>
		</layer>
		<layer id="200" name="FeatureExtractor/MobilenetV1/MobilenetV1/Conv2d_4_depthwise/BatchNorm/batchnorm/mul_1_copy4084491/quantized/to_f16" type="Convert" version="opset1">
			<data destination_type="f16"/>
			<input>
				<port id="0">
					<dim>128</dim>
					<dim>1</dim>
					<dim>3</dim>
					<dim>3</dim>
				</port>
			</input>
			<output>
				<port id="1" precision="FP16">
					<dim>128</dim>
					<dim>1</dim>
					<dim>3</dim>
					<dim>3</dim>
				</port>
			</output>
		</layer>
		<layer id="201" name="FeatureExtractor/MobilenetV1/MobilenetV1/Conv2d_4_depthwise/depthwise/fq_weights_1/zero_point55768962" type="Const" version="opset1">
			<data element_type="f16" offset="43113" shape="128,1,1,1" size="256"/>
			<output>
				<port id="0" precision="FP16">
					<dim>128</dim>
					<dim>1</dim>
					<dim>1</dim>
					<dim>1</dim>
				</port>
			</output>
		</layer>
		<layer id="202" name="FeatureExtractor/MobilenetV1/MobilenetV1/Conv2d_4_depthwise/depthwise/fq_weights_1/minus_zp" type="Subtract" version="opset1">
			<data auto_broadcast="numpy"/>
			<input>
				<port id="0">
					<dim>128</dim>
					<dim>1</dim>
					<dim>3</dim>
					<dim>3</dim>
				</port>
				<port id="1">
					<dim>128</dim>
					<dim>1</dim>
					<dim>1</dim>
					<dim>1</dim>
				</port>
			</input>
			<output>
				<port id="2" precision="FP16">
					<dim>128</dim>
					<dim>1</dim>
					<dim>3</dim>
					<dim>3</dim>
				</port>
			</output>
		</layer>
		<layer id="203" name="FeatureExtractor/MobilenetV1/MobilenetV1/Conv2d_4_depthwise/depthwise/fq_weights_1/scale55658302" type="Const" version="opset1">
			<data element_type="f16" offset="43369" shape="128,1,1,1" size="256"/>
			<output>
				<port id="0" precision="FP16">
					<dim>128</dim>
					<dim>1</dim>
					<dim>1</dim>
					<dim>1</dim>
				</port>
			</output>
		</layer>
		<layer id="204" name="FeatureExtractor/MobilenetV1/MobilenetV1/Conv2d_4_depthwise/depthwise/fq_weights_1/mulpiply_by_scale" type="Multiply" version="opset1">
			<data auto_broadcast="numpy"/>
			<input>
				<port id="0">
					<dim>128</dim>
					<dim>1</dim>
					<dim>3</dim>
					<dim>3</dim>
				</port>
				<port id="1">
					<dim>128</dim>
					<dim>1</dim>
					<dim>1</dim>
					<dim>1</dim>
				</port>
			</input>
			<output>
				<port id="2" precision="FP16">
					<dim>128</dim>
					<dim>1</dim>
					<dim>3</dim>
					<dim>3</dim>
				</port>
			</output>
		</layer>
		<layer id="205" name="7350" type="Reshape" version="opset1">
			<data special_zero="true"/>
			<input>
				<port id="0">
					<dim>128</dim>
					<dim>1</dim>
					<dim>3</dim>
					<dim>3</dim>
				</port>
				<port id="1">
					<dim>5</dim>
				</port>
			</input>
			<output>
				<port id="2" precision="FP16">
					<dim>128</dim>
					<dim>1</dim>
					<dim>1</dim>
					<dim>3</dim>
					<dim>3</dim>
				</port>
			</output>
		</layer>
		<layer id="206" name="FeatureExtractor/MobilenetV1/MobilenetV1/Conv2d_4_depthwise/depthwise" type="GroupConvolution" version="opset1">
			<data auto_pad="same_upper" dilations="1,1" pads_begin="0,0" pads_end="0,0" strides="2,2"/>
			<input>
				<port id="0">
					<dim>1</dim>
					<dim>128</dim>
					<dim>75</dim>
					<dim>75</dim>
				</port>
				<port id="1">
					<dim>128</dim>
					<dim>1</dim>
					<dim>1</dim>
					<dim>3</dim>
					<dim>3</dim>
				</port>
			</input>
			<output>
				<port id="2" names="FeatureExtractor/MobilenetV1/MobilenetV1/Conv2d_4_depthwise/BatchNorm/batchnorm/mul_1:0" precision="FP16">
					<dim>1</dim>
					<dim>128</dim>
					<dim>38</dim>
					<dim>38</dim>
				</port>
			</output>
		</layer>
		<layer id="207" name="FeatureExtractor/MobilenetV1/MobilenetV1/Conv2d_4_depthwise/BatchNorm/batchnorm/sub/_144__cf__1474109016" type="Const" version="opset1">
			<data element_type="f16" offset="43625" shape="1,128,1,1" size="256"/>
			<output>
				<port id="0" names="FeatureExtractor/MobilenetV1/MobilenetV1/Conv2d_4_depthwise/BatchNorm/batchnorm/sub/_144__cf__147:0" precision="FP16">
					<dim>1</dim>
					<dim>128</dim>
					<dim>1</dim>
					<dim>1</dim>
				</port>
			</output>
		</layer>
		<layer id="208" name="FeatureExtractor/MobilenetV1/MobilenetV1/Conv2d_4_depthwise/BatchNorm/batchnorm/add_1" type="Add" version="opset1">
			<data auto_broadcast="numpy"/>
			<input>
				<port id="0">
					<dim>1</dim>
					<dim>128</dim>
					<dim>38</dim>
					<dim>38</dim>
				</port>
				<port id="1">
					<dim>1</dim>
					<dim>128</dim>
					<dim>1</dim>
					<dim>1</dim>
				</port>
			</input>
			<output>
				<port id="2" names="FeatureExtractor/MobilenetV1/MobilenetV1/Conv2d_4_depthwise/BatchNorm/batchnorm/add_1:0" precision="FP16">
					<dim>1</dim>
					<dim>128</dim>
					<dim>38</dim>
					<dim>38</dim>
				</port>
			</output>
		</layer>
		<layer id="209" name="FeatureExtractor/MobilenetV1/MobilenetV1/Conv2d_4_depthwise/Relu6" type="Clamp" version="opset1">
			<data max="6" min="0"/>
			<input>
				<port id="0">
					<dim>1</dim>
					<dim>128</dim>
					<dim>38</dim>
					<dim>38</dim>
				</port>
			</input>
			<output>
				<port id="1" names="FeatureExtractor/MobilenetV1/MobilenetV1/Conv2d_4_depthwise/Relu6:0" precision="FP16">
					<dim>1</dim>
					<dim>128</dim>
					<dim>38</dim>
					<dim>38</dim>
				</port>
			</output>
		</layer>
		<layer id="210" name="FeatureExtractor/MobilenetV1/MobilenetV1/Conv2d_4_pointwise/BatchNorm/batchnorm/mul_1/fq_input_0" type="FakeQuantize" version="opset1">
			<data auto_broadcast="numpy" levels="256"/>
			<input>
				<port id="0">
					<dim>1</dim>
					<dim>128</dim>
					<dim>38</dim>
					<dim>38</dim>
				</port>
				<port id="1"/>
				<port id="2"/>
				<port id="3"/>
				<port id="4"/>
			</input>
			<output>
				<port id="5" precision="FP16">
					<dim>1</dim>
					<dim>128</dim>
					<dim>38</dim>
					<dim>38</dim>
				</port>
			</output>
		</layer>
		<layer id="211" name="FeatureExtractor/MobilenetV1/Conv2d_4_pointwise/weights/read/_142__cf__1454134493/quantized56479139" type="Const" version="opset1">
			<data element_type="i8" offset="43881" shape="256,128,1,1" size="32768"/>
			<output>
				<port id="0" precision="I8">
					<dim>256</dim>
					<dim>128</dim>
					<dim>1</dim>
					<dim>1</dim>
				</port>
			</output>
		</layer>
		<layer id="212" name="FeatureExtractor/MobilenetV1/Conv2d_4_pointwise/weights/read/_142__cf__1454134493/quantized/to_f16" type="Convert" version="opset1">
			<data destination_type="f16"/>
			<input>
				<port id="0">
					<dim>256</dim>
					<dim>128</dim>
					<dim>1</dim>
					<dim>1</dim>
				</port>
			</input>
			<output>
				<port id="1" precision="FP16">
					<dim>256</dim>
					<dim>128</dim>
					<dim>1</dim>
					<dim>1</dim>
				</port>
			</output>
		</layer>
		<layer id="213" name="FeatureExtractor/MobilenetV1/MobilenetV1/Conv2d_4_pointwise/BatchNorm/batchnorm/mul_1/fq_weights_1/zero_point56668320" type="Const" version="opset1">
			<data element_type="f16" offset="76649" shape="256,1,1,1" size="512"/>
			<output>
				<port id="0" precision="FP16">
					<dim>256</dim>
					<dim>1</dim>
					<dim>1</dim>
					<dim>1</dim>
				</port>
			</output>
		</layer>
		<layer id="214" name="FeatureExtractor/MobilenetV1/MobilenetV1/Conv2d_4_pointwise/BatchNorm/batchnorm/mul_1/fq_weights_1/minus_zp" type="Subtract" version="opset1">
			<data auto_broadcast="numpy"/>
			<input>
				<port id="0">
					<dim>256</dim>
					<dim>128</dim>
					<dim>1</dim>
					<dim>1</dim>
				</port>
				<port id="1">
					<dim>256</dim>
					<dim>1</dim>
					<dim>1</dim>
					<dim>1</dim>
				</port>
			</input>
			<output>
				<port id="2" precision="FP16">
					<dim>256</dim>
					<dim>128</dim>
					<dim>1</dim>
					<dim>1</dim>
				</port>
			</output>
		</layer>
		<layer id="215" name="FeatureExtractor/MobilenetV1/MobilenetV1/Conv2d_4_pointwise/BatchNorm/batchnorm/mul_1/fq_weights_1/scale56559172" type="Const" version="opset1">
			<data element_type="f16" offset="77161" shape="256,1,1,1" size="512"/>
			<output>
				<port id="0" precision="FP16">
					<dim>256</dim>
					<dim>1</dim>
					<dim>1</dim>
					<dim>1</dim>
				</port>
			</output>
		</layer>
		<layer id="216" name="FeatureExtractor/MobilenetV1/MobilenetV1/Conv2d_4_pointwise/BatchNorm/batchnorm/mul_1/fq_weights_1/mulpiply_by_scale" type="Multiply" version="opset1">
			<data auto_broadcast="numpy"/>
			<input>
				<port id="0">
					<dim>256</dim>
					<dim>128</dim>
					<dim>1</dim>
					<dim>1</dim>
				</port>
				<port id="1">
					<dim>256</dim>
					<dim>1</dim>
					<dim>1</dim>
					<dim>1</dim>
				</port>
			</input>
			<output>
				<port id="2" precision="FP16">
					<dim>256</dim>
					<dim>128</dim>
					<dim>1</dim>
					<dim>1</dim>
				</port>
			</output>
		</layer>
		<layer id="217" name="FeatureExtractor/MobilenetV1/MobilenetV1/Conv2d_4_pointwise/BatchNorm/batchnorm/mul_1" type="Convolution" version="opset1">
			<data auto_pad="same_upper" dilations="1,1" pads_begin="0,0" pads_end="0,0" strides="1,1"/>
			<input>
				<port id="0">
					<dim>1</dim>
					<dim>128</dim>
					<dim>38</dim>
					<dim>38</dim>
				</port>
				<port id="1">
					<dim>256</dim>
					<dim>128</dim>
					<dim>1</dim>
					<dim>1</dim>
				</port>
			</input>
			<output>
				<port id="2" names="FeatureExtractor/MobilenetV1/MobilenetV1/Conv2d_4_pointwise/BatchNorm/batchnorm/mul_1:0" precision="FP16">
					<dim>1</dim>
					<dim>256</dim>
					<dim>38</dim>
					<dim>38</dim>
				</port>
			</output>
		</layer>
		<layer id="218" name="FeatureExtractor/MobilenetV1/MobilenetV1/Conv2d_4_pointwise/BatchNorm/batchnorm/sub/_141__cf__1444158263" type="Const" version="opset1">
			<data element_type="f16" offset="77673" shape="1,256,1,1" size="512"/>
			<output>
				<port id="0" names="FeatureExtractor/MobilenetV1/MobilenetV1/Conv2d_4_pointwise/BatchNorm/batchnorm/sub/_141__cf__144:0" precision="FP16">
					<dim>1</dim>
					<dim>256</dim>
					<dim>1</dim>
					<dim>1</dim>
				</port>
			</output>
		</layer>
		<layer id="219" name="FeatureExtractor/MobilenetV1/MobilenetV1/Conv2d_4_pointwise/BatchNorm/batchnorm/add_1" type="Add" version="opset1">
			<data auto_broadcast="numpy"/>
			<input>
				<port id="0">
					<dim>1</dim>
					<dim>256</dim>
					<dim>38</dim>
					<dim>38</dim>
				</port>
				<port id="1">
					<dim>1</dim>
					<dim>256</dim>
					<dim>1</dim>
					<dim>1</dim>
				</port>
			</input>
			<output>
				<port id="2" names="FeatureExtractor/MobilenetV1/MobilenetV1/Conv2d_4_pointwise/BatchNorm/batchnorm/add_1:0" precision="FP16">
					<dim>1</dim>
					<dim>256</dim>
					<dim>38</dim>
					<dim>38</dim>
				</port>
			</output>
		</layer>
		<layer id="220" name="FeatureExtractor/MobilenetV1/MobilenetV1/Conv2d_4_pointwise/Relu6" type="Clamp" version="opset1">
			<data max="6" min="0"/>
			<input>
				<port id="0">
					<dim>1</dim>
					<dim>256</dim>
					<dim>38</dim>
					<dim>38</dim>
				</port>
			</input>
			<output>
				<port id="1" names="FeatureExtractor/MobilenetV1/MobilenetV1/Conv2d_4_pointwise/Relu6:0" precision="FP16">
					<dim>1</dim>
					<dim>256</dim>
					<dim>38</dim>
					<dim>38</dim>
				</port>
			</output>
		</layer>
		<layer id="221" name="FeatureExtractor/MobilenetV1/MobilenetV1/Conv2d_5_depthwise/depthwise/fq_input_0" type="FakeQuantize" version="opset1">
			<data auto_broadcast="numpy" levels="256"/>
			<input>
				<port id="0">
					<dim>1</dim>
					<dim>256</dim>
					<dim>38</dim>
					<dim>38</dim>
				</port>
				<port id="1">
					<dim>1</dim>
					<dim>256</dim>
					<dim>1</dim>
					<dim>1</dim>
				</port>
				<port id="2">
					<dim>1</dim>
					<dim>256</dim>
					<dim>1</dim>
					<dim>1</dim>
				</port>
				<port id="3">
					<dim>1</dim>
					<dim>256</dim>
					<dim>1</dim>
					<dim>1</dim>
				</port>
				<port id="4">
					<dim>1</dim>
					<dim>256</dim>
					<dim>1</dim>
					<dim>1</dim>
				</port>
			</input>
			<output>
				<port id="5" precision="FP16">
					<dim>1</dim>
					<dim>256</dim>
					<dim>38</dim>
					<dim>38</dim>
				</port>
			</output>
		</layer>
		<layer id="222" name="7354/value73569412" type="Const" version="opset1">
			<data element_type="i64" offset="78185" shape="5" size="40"/>
			<output>
				<port id="0" precision="I64">
					<dim>5</dim>
				</port>
			</output>
		</layer>
		<layer id="223" name="FeatureExtractor/MobilenetV1/MobilenetV1/Conv2d_5_depthwise/BatchNorm/batchnorm/mul_1_copy4184495/quantized54078860" type="Const" version="opset1">
			<data element_type="i8" offset="78225" shape="256,1,3,3" size="2304"/>
			<output>
				<port id="0" precision="I8">
					<dim>256</dim>
					<dim>1</dim>
					<dim>3</dim>
					<dim>3</dim>
				</port>
			</output>
		</layer>
		<layer id="224" name="FeatureExtractor/MobilenetV1/MobilenetV1/Conv2d_5_depthwise/BatchNorm/batchnorm/mul_1_copy4184495/quantized/to_f16" type="Convert" version="opset1">
			<data destination_type="f16"/>
			<input>
				<port id="0">
					<dim>256</dim>
					<dim>1</dim>
					<dim>3</dim>
					<dim>3</dim>
				</port>
			</input>
			<output>
				<port id="1" precision="FP16">
					<dim>256</dim>
					<dim>1</dim>
					<dim>3</dim>
					<dim>3</dim>
				</port>
			</output>
		</layer>
		<layer id="225" name="FeatureExtractor/MobilenetV1/MobilenetV1/Conv2d_5_depthwise/depthwise/fq_weights_1/zero_point54269109" type="Const" version="opset1">
			<data element_type="f16" offset="80529" shape="256,1,1,1" size="512"/>
			<output>
				<port id="0" precision="FP16">
					<dim>256</dim>
					<dim>1</dim>
					<dim>1</dim>
					<dim>1</dim>
				</port>
			</output>
		</layer>
		<layer id="226" name="FeatureExtractor/MobilenetV1/MobilenetV1/Conv2d_5_depthwise/depthwise/fq_weights_1/minus_zp" type="Subtract" version="opset1">
			<data auto_broadcast="numpy"/>
			<input>
				<port id="0">
					<dim>256</dim>
					<dim>1</dim>
					<dim>3</dim>
					<dim>3</dim>
				</port>
				<port id="1">
					<dim>256</dim>
					<dim>1</dim>
					<dim>1</dim>
					<dim>1</dim>
				</port>
			</input>
			<output>
				<port id="2" precision="FP16">
					<dim>256</dim>
					<dim>1</dim>
					<dim>3</dim>
					<dim>3</dim>
				</port>
			</output>
		</layer>
		<layer id="227" name="FeatureExtractor/MobilenetV1/MobilenetV1/Conv2d_5_depthwise/depthwise/fq_weights_1/scale54158746" type="Const" version="opset1">
			<data element_type="f16" offset="81041" shape="256,1,1,1" size="512"/>
			<output>
				<port id="0" precision="FP16">
					<dim>256</dim>
					<dim>1</dim>
					<dim>1</dim>
					<dim>1</dim>
				</port>
			</output>
		</layer>
		<layer id="228" name="FeatureExtractor/MobilenetV1/MobilenetV1/Conv2d_5_depthwise/depthwise/fq_weights_1/mulpiply_by_scale" type="Multiply" version="opset1">
			<data auto_broadcast="numpy"/>
			<input>
				<port id="0">
					<dim>256</dim>
					<dim>1</dim>
					<dim>3</dim>
					<dim>3</dim>
				</port>
				<port id="1">
					<dim>256</dim>
					<dim>1</dim>
					<dim>1</dim>
					<dim>1</dim>
				</port>
			</input>
			<output>
				<port id="2" precision="FP16">
					<dim>256</dim>
					<dim>1</dim>
					<dim>3</dim>
					<dim>3</dim>
				</port>
			</output>
		</layer>
		<layer id="229" name="7354" type="Reshape" version="opset1">
			<data special_zero="true"/>
			<input>
				<port id="0">
					<dim>256</dim>
					<dim>1</dim>
					<dim>3</dim>
					<dim>3</dim>
				</port>
				<port id="1">
					<dim>5</dim>
				</port>
			</input>
			<output>
				<port id="2" precision="FP16">
					<dim>256</dim>
					<dim>1</dim>
					<dim>1</dim>
					<dim>3</dim>
					<dim>3</dim>
				</port>
			</output>
		</layer>
		<layer id="230" name="FeatureExtractor/MobilenetV1/MobilenetV1/Conv2d_5_depthwise/depthwise" type="GroupConvolution" version="opset1">
			<data auto_pad="same_upper" dilations="1,1" pads_begin="0,0" pads_end="0,0" strides="1,1"/>
			<input>
				<port id="0">
					<dim>1</dim>
					<dim>256</dim>
					<dim>38</dim>
					<dim>38</dim>
				</port>
				<port id="1">
					<dim>256</dim>
					<dim>1</dim>
					<dim>1</dim>
					<dim>3</dim>
					<dim>3</dim>
				</port>
			</input>
			<output>
				<port id="2" names="FeatureExtractor/MobilenetV1/MobilenetV1/Conv2d_5_depthwise/BatchNorm/batchnorm/mul_1:0" precision="FP16">
					<dim>1</dim>
					<dim>256</dim>
					<dim>38</dim>
					<dim>38</dim>
				</port>
			</output>
		</layer>
		<layer id="231" name="FeatureExtractor/MobilenetV1/MobilenetV1/Conv2d_5_depthwise/BatchNorm/batchnorm/sub/_138__cf__1414209292" type="Const" version="opset1">
			<data element_type="f16" offset="81553" shape="1,256,1,1" size="512"/>
			<output>
				<port id="0" names="FeatureExtractor/MobilenetV1/MobilenetV1/Conv2d_5_depthwise/BatchNorm/batchnorm/sub/_138__cf__141:0" precision="FP16">
					<dim>1</dim>
					<dim>256</dim>
					<dim>1</dim>
					<dim>1</dim>
				</port>
			</output>
		</layer>
		<layer id="232" name="FeatureExtractor/MobilenetV1/MobilenetV1/Conv2d_5_depthwise/BatchNorm/batchnorm/add_1" type="Add" version="opset1">
			<data auto_broadcast="numpy"/>
			<input>
				<port id="0">
					<dim>1</dim>
					<dim>256</dim>
					<dim>38</dim>
					<dim>38</dim>
				</port>
				<port id="1">
					<dim>1</dim>
					<dim>256</dim>
					<dim>1</dim>
					<dim>1</dim>
				</port>
			</input>
			<output>
				<port id="2" names="FeatureExtractor/MobilenetV1/MobilenetV1/Conv2d_5_depthwise/BatchNorm/batchnorm/add_1:0" precision="FP16">
					<dim>1</dim>
					<dim>256</dim>
					<dim>38</dim>
					<dim>38</dim>
				</port>
			</output>
		</layer>
		<layer id="233" name="FeatureExtractor/MobilenetV1/MobilenetV1/Conv2d_5_depthwise/Relu6" type="Clamp" version="opset1">
			<data max="6" min="0"/>
			<input>
				<port id="0">
					<dim>1</dim>
					<dim>256</dim>
					<dim>38</dim>
					<dim>38</dim>
				</port>
			</input>
			<output>
				<port id="1" names="FeatureExtractor/MobilenetV1/MobilenetV1/Conv2d_5_depthwise/Relu6:0" precision="FP16">
					<dim>1</dim>
					<dim>256</dim>
					<dim>38</dim>
					<dim>38</dim>
				</port>
			</output>
		</layer>
		<layer id="234" name="FeatureExtractor/MobilenetV1/MobilenetV1/Conv2d_5_pointwise/BatchNorm/batchnorm/mul_1/fq_input_0" type="FakeQuantize" version="opset1">
			<data auto_broadcast="numpy" levels="256"/>
			<input>
				<port id="0">
					<dim>1</dim>
					<dim>256</dim>
					<dim>38</dim>
					<dim>38</dim>
				</port>
				<port id="1"/>
				<port id="2"/>
				<port id="3"/>
				<port id="4"/>
			</input>
			<output>
				<port id="5" precision="FP16">
					<dim>1</dim>
					<dim>256</dim>
					<dim>38</dim>
					<dim>38</dim>
				</port>
			</output>
		</layer>
		<layer id="235" name="FeatureExtractor/MobilenetV1/Conv2d_5_pointwise/weights/read/_136__cf__1394234497/quantized63078908" type="Const" version="opset1">
			<data element_type="i8" offset="82065" shape="256,256,1,1" size="65536"/>
			<output>
				<port id="0" precision="I8">
					<dim>256</dim>
					<dim>256</dim>
					<dim>1</dim>
					<dim>1</dim>
				</port>
			</output>
		</layer>
		<layer id="236" name="FeatureExtractor/MobilenetV1/Conv2d_5_pointwise/weights/read/_136__cf__1394234497/quantized/to_f16" type="Convert" version="opset1">
			<data destination_type="f16"/>
			<input>
				<port id="0">
					<dim>256</dim>
					<dim>256</dim>
					<dim>1</dim>
					<dim>1</dim>
				</port>
			</input>
			<output>
				<port id="1" precision="FP16">
					<dim>256</dim>
					<dim>256</dim>
					<dim>1</dim>
					<dim>1</dim>
				</port>
			</output>
		</layer>
		<layer id="237" name="FeatureExtractor/MobilenetV1/MobilenetV1/Conv2d_5_pointwise/BatchNorm/batchnorm/mul_1/fq_weights_1/zero_point63268356" type="Const" version="opset1">
			<data element_type="f16" offset="147601" shape="256,1,1,1" size="512"/>
			<output>
				<port id="0" precision="FP16">
					<dim>256</dim>
					<dim>1</dim>
					<dim>1</dim>
					<dim>1</dim>
				</port>
			</output>
		</layer>
		<layer id="238" name="FeatureExtractor/MobilenetV1/MobilenetV1/Conv2d_5_pointwise/BatchNorm/batchnorm/mul_1/fq_weights_1/minus_zp" type="Subtract" version="opset1">
			<data auto_broadcast="numpy"/>
			<input>
				<port id="0">
					<dim>256</dim>
					<dim>256</dim>
					<dim>1</dim>
					<dim>1</dim>
				</port>
				<port id="1">
					<dim>256</dim>
					<dim>1</dim>
					<dim>1</dim>
					<dim>1</dim>
				</port>
			</input>
			<output>
				<port id="2" precision="FP16">
					<dim>256</dim>
					<dim>256</dim>
					<dim>1</dim>
					<dim>1</dim>
				</port>
			</output>
		</layer>
		<layer id="239" name="FeatureExtractor/MobilenetV1/MobilenetV1/Conv2d_5_pointwise/BatchNorm/batchnorm/mul_1/fq_weights_1/scale63159283" type="Const" version="opset1">
			<data element_type="f16" offset="148113" shape="256,1,1,1" size="512"/>
			<output>
				<port id="0" precision="FP16">
					<dim>256</dim>
					<dim>1</dim>
					<dim>1</dim>
					<dim>1</dim>
				</port>
			</output>
		</layer>
		<layer id="240" name="FeatureExtractor/MobilenetV1/MobilenetV1/Conv2d_5_pointwise/BatchNorm/batchnorm/mul_1/fq_weights_1/mulpiply_by_scale" type="Multiply" version="opset1">
			<data auto_broadcast="numpy"/>
			<input>
				<port id="0">
					<dim>256</dim>
					<dim>256</dim>
					<dim>1</dim>
					<dim>1</dim>
				</port>
				<port id="1">
					<dim>256</dim>
					<dim>1</dim>
					<dim>1</dim>
					<dim>1</dim>
				</port>
			</input>
			<output>
				<port id="2" precision="FP16">
					<dim>256</dim>
					<dim>256</dim>
					<dim>1</dim>
					<dim>1</dim>
				</port>
			</output>
		</layer>
		<layer id="241" name="FeatureExtractor/MobilenetV1/MobilenetV1/Conv2d_5_pointwise/BatchNorm/batchnorm/mul_1" type="Convolution" version="opset1">
			<data auto_pad="same_upper" dilations="1,1" pads_begin="0,0" pads_end="0,0" strides="1,1"/>
			<input>
				<port id="0">
					<dim>1</dim>
					<dim>256</dim>
					<dim>38</dim>
					<dim>38</dim>
				</port>
				<port id="1">
					<dim>256</dim>
					<dim>256</dim>
					<dim>1</dim>
					<dim>1</dim>
				</port>
			</input>
			<output>
				<port id="2" names="FeatureExtractor/MobilenetV1/MobilenetV1/Conv2d_5_pointwise/BatchNorm/batchnorm/mul_1:0" precision="FP16">
					<dim>1</dim>
					<dim>256</dim>
					<dim>38</dim>
					<dim>38</dim>
				</port>
			</output>
		</layer>
		<layer id="242" name="FeatureExtractor/MobilenetV1/MobilenetV1/Conv2d_5_pointwise/BatchNorm/batchnorm/sub/_135__cf__1384258602" type="Const" version="opset1">
			<data element_type="f16" offset="148625" shape="1,256,1,1" size="512"/>
			<output>
				<port id="0" names="FeatureExtractor/MobilenetV1/MobilenetV1/Conv2d_5_pointwise/BatchNorm/batchnorm/sub/_135__cf__138:0" precision="FP16">
					<dim>1</dim>
					<dim>256</dim>
					<dim>1</dim>
					<dim>1</dim>
				</port>
			</output>
		</layer>
		<layer id="243" name="FeatureExtractor/MobilenetV1/MobilenetV1/Conv2d_5_pointwise/BatchNorm/batchnorm/add_1" type="Add" version="opset1">
			<data auto_broadcast="numpy"/>
			<input>
				<port id="0">
					<dim>1</dim>
					<dim>256</dim>
					<dim>38</dim>
					<dim>38</dim>
				</port>
				<port id="1">
					<dim>1</dim>
					<dim>256</dim>
					<dim>1</dim>
					<dim>1</dim>
				</port>
			</input>
			<output>
				<port id="2" names="FeatureExtractor/MobilenetV1/MobilenetV1/Conv2d_5_pointwise/BatchNorm/batchnorm/add_1:0" precision="FP16">
					<dim>1</dim>
					<dim>256</dim>
					<dim>38</dim>
					<dim>38</dim>
				</port>
			</output>
		</layer>
		<layer id="244" name="FeatureExtractor/MobilenetV1/MobilenetV1/Conv2d_5_pointwise/Relu6" type="Clamp" version="opset1">
			<data max="6" min="0"/>
			<input>
				<port id="0">
					<dim>1</dim>
					<dim>256</dim>
					<dim>38</dim>
					<dim>38</dim>
				</port>
			</input>
			<output>
				<port id="1" names="FeatureExtractor/MobilenetV1/MobilenetV1/Conv2d_5_pointwise/Relu6:0" precision="FP16">
					<dim>1</dim>
					<dim>256</dim>
					<dim>38</dim>
					<dim>38</dim>
				</port>
			</output>
		</layer>
		<layer id="245" name="FeatureExtractor/MobilenetV1/MobilenetV1/Conv2d_6_depthwise/depthwise/fq_input_0" type="FakeQuantize" version="opset1">
			<data auto_broadcast="numpy" levels="256"/>
			<input>
				<port id="0">
					<dim>1</dim>
					<dim>256</dim>
					<dim>38</dim>
					<dim>38</dim>
				</port>
				<port id="1">
					<dim>1</dim>
					<dim>256</dim>
					<dim>1</dim>
					<dim>1</dim>
				</port>
				<port id="2">
					<dim>1</dim>
					<dim>256</dim>
					<dim>1</dim>
					<dim>1</dim>
				</port>
				<port id="3">
					<dim>1</dim>
					<dim>256</dim>
					<dim>1</dim>
					<dim>1</dim>
				</port>
				<port id="4">
					<dim>1</dim>
					<dim>256</dim>
					<dim>1</dim>
					<dim>1</dim>
				</port>
			</input>
			<output>
				<port id="5" precision="FP16">
					<dim>1</dim>
					<dim>256</dim>
					<dim>38</dim>
					<dim>38</dim>
				</port>
			</output>
		</layer>
		<layer id="246" name="7358/value73609394" type="Const" version="opset1">
			<data element_type="i64" offset="78185" shape="5" size="40"/>
			<output>
				<port id="0" precision="I64">
					<dim>5</dim>
				</port>
			</output>
		</layer>
		<layer id="247" name="FeatureExtractor/MobilenetV1/MobilenetV1/Conv2d_6_depthwise/BatchNorm/batchnorm/mul_1_copy4284499/quantized60078968" type="Const" version="opset1">
			<data element_type="i8" offset="149137" shape="256,1,3,3" size="2304"/>
			<output>
				<port id="0" precision="I8">
					<dim>256</dim>
					<dim>1</dim>
					<dim>3</dim>
					<dim>3</dim>
				</port>
			</output>
		</layer>
		<layer id="248" name="FeatureExtractor/MobilenetV1/MobilenetV1/Conv2d_6_depthwise/BatchNorm/batchnorm/mul_1_copy4284499/quantized/to_f16" type="Convert" version="opset1">
			<data destination_type="f16"/>
			<input>
				<port id="0">
					<dim>256</dim>
					<dim>1</dim>
					<dim>3</dim>
					<dim>3</dim>
				</port>
			</input>
			<output>
				<port id="1" precision="FP16">
					<dim>256</dim>
					<dim>1</dim>
					<dim>3</dim>
					<dim>3</dim>
				</port>
			</output>
		</layer>
		<layer id="249" name="FeatureExtractor/MobilenetV1/MobilenetV1/Conv2d_6_depthwise/depthwise/fq_weights_1/zero_point60268515" type="Const" version="opset1">
			<data element_type="f16" offset="151441" shape="256,1,1,1" size="512"/>
			<output>
				<port id="0" precision="FP16">
					<dim>256</dim>
					<dim>1</dim>
					<dim>1</dim>
					<dim>1</dim>
				</port>
			</output>
		</layer>
		<layer id="250" name="FeatureExtractor/MobilenetV1/MobilenetV1/Conv2d_6_depthwise/depthwise/fq_weights_1/minus_zp" type="Subtract" version="opset1">
			<data auto_broadcast="numpy"/>
			<input>
				<port id="0">
					<dim>256</dim>
					<dim>1</dim>
					<dim>3</dim>
					<dim>3</dim>
				</port>
				<port id="1">
					<dim>256</dim>
					<dim>1</dim>
					<dim>1</dim>
					<dim>1</dim>
				</port>
			</input>
			<output>
				<port id="2" precision="FP16">
					<dim>256</dim>
					<dim>1</dim>
					<dim>3</dim>
					<dim>3</dim>
				</port>
			</output>
		</layer>
		<layer id="251" name="FeatureExtractor/MobilenetV1/MobilenetV1/Conv2d_6_depthwise/depthwise/fq_weights_1/scale60158779" type="Const" version="opset1">
			<data element_type="f16" offset="151953" shape="256,1,1,1" size="512"/>
			<output>
				<port id="0" precision="FP16">
					<dim>256</dim>
					<dim>1</dim>
					<dim>1</dim>
					<dim>1</dim>
				</port>
			</output>
		</layer>
		<layer id="252" name="FeatureExtractor/MobilenetV1/MobilenetV1/Conv2d_6_depthwise/depthwise/fq_weights_1/mulpiply_by_scale" type="Multiply" version="opset1">
			<data auto_broadcast="numpy"/>
			<input>
				<port id="0">
					<dim>256</dim>
					<dim>1</dim>
					<dim>3</dim>
					<dim>3</dim>
				</port>
				<port id="1">
					<dim>256</dim>
					<dim>1</dim>
					<dim>1</dim>
					<dim>1</dim>
				</port>
			</input>
			<output>
				<port id="2" precision="FP16">
					<dim>256</dim>
					<dim>1</dim>
					<dim>3</dim>
					<dim>3</dim>
				</port>
			</output>
		</layer>
		<layer id="253" name="7358" type="Reshape" version="opset1">
			<data special_zero="true"/>
			<input>
				<port id="0">
					<dim>256</dim>
					<dim>1</dim>
					<dim>3</dim>
					<dim>3</dim>
				</port>
				<port id="1">
					<dim>5</dim>
				</port>
			</input>
			<output>
				<port id="2" precision="FP16">
					<dim>256</dim>
					<dim>1</dim>
					<dim>1</dim>
					<dim>3</dim>
					<dim>3</dim>
				</port>
			</output>
		</layer>
		<layer id="254" name="FeatureExtractor/MobilenetV1/MobilenetV1/Conv2d_6_depthwise/depthwise" type="GroupConvolution" version="opset1">
			<data auto_pad="same_upper" dilations="1,1" pads_begin="0,0" pads_end="0,0" strides="2,2"/>
			<input>
				<port id="0">
					<dim>1</dim>
					<dim>256</dim>
					<dim>38</dim>
					<dim>38</dim>
				</port>
				<port id="1">
					<dim>256</dim>
					<dim>1</dim>
					<dim>1</dim>
					<dim>3</dim>
					<dim>3</dim>
				</port>
			</input>
			<output>
				<port id="2" names="FeatureExtractor/MobilenetV1/MobilenetV1/Conv2d_6_depthwise/BatchNorm/batchnorm/mul_1:0" precision="FP16">
					<dim>1</dim>
					<dim>256</dim>
					<dim>19</dim>
					<dim>19</dim>
				</port>
			</output>
		</layer>
		<layer id="255" name="FeatureExtractor/MobilenetV1/MobilenetV1/Conv2d_6_depthwise/BatchNorm/batchnorm/sub/_132__cf__1354308728" type="Const" version="opset1">
			<data element_type="f16" offset="152465" shape="1,256,1,1" size="512"/>
			<output>
				<port id="0" names="FeatureExtractor/MobilenetV1/MobilenetV1/Conv2d_6_depthwise/BatchNorm/batchnorm/sub/_132__cf__135:0" precision="FP16">
					<dim>1</dim>
					<dim>256</dim>
					<dim>1</dim>
					<dim>1</dim>
				</port>
			</output>
		</layer>
		<layer id="256" name="FeatureExtractor/MobilenetV1/MobilenetV1/Conv2d_6_depthwise/BatchNorm/batchnorm/add_1" type="Add" version="opset1">
			<data auto_broadcast="numpy"/>
			<input>
				<port id="0">
					<dim>1</dim>
					<dim>256</dim>
					<dim>19</dim>
					<dim>19</dim>
				</port>
				<port id="1">
					<dim>1</dim>
					<dim>256</dim>
					<dim>1</dim>
					<dim>1</dim>
				</port>
			</input>
			<output>
				<port id="2" names="FeatureExtractor/MobilenetV1/MobilenetV1/Conv2d_6_depthwise/BatchNorm/batchnorm/add_1:0" precision="FP16">
					<dim>1</dim>
					<dim>256</dim>
					<dim>19</dim>
					<dim>19</dim>
				</port>
			</output>
		</layer>
		<layer id="257" name="FeatureExtractor/MobilenetV1/MobilenetV1/Conv2d_6_depthwise/Relu6" type="Clamp" version="opset1">
			<data max="6" min="0"/>
			<input>
				<port id="0">
					<dim>1</dim>
					<dim>256</dim>
					<dim>19</dim>
					<dim>19</dim>
				</port>
			</input>
			<output>
				<port id="1" names="FeatureExtractor/MobilenetV1/MobilenetV1/Conv2d_6_depthwise/Relu6:0" precision="FP16">
					<dim>1</dim>
					<dim>256</dim>
					<dim>19</dim>
					<dim>19</dim>
				</port>
			</output>
		</layer>
		<layer id="258" name="FeatureExtractor/MobilenetV1/MobilenetV1/Conv2d_6_pointwise/BatchNorm/batchnorm/mul_1/fq_input_0" type="FakeQuantize" version="opset1">
			<data auto_broadcast="numpy" levels="256"/>
			<input>
				<port id="0">
					<dim>1</dim>
					<dim>256</dim>
					<dim>19</dim>
					<dim>19</dim>
				</port>
				<port id="1"/>
				<port id="2"/>
				<port id="3"/>
				<port id="4"/>
			</input>
			<output>
				<port id="5" precision="FP16">
					<dim>1</dim>
					<dim>256</dim>
					<dim>19</dim>
					<dim>19</dim>
				</port>
			</output>
		</layer>
		<layer id="259" name="FeatureExtractor/MobilenetV1/Conv2d_6_pointwise/weights/read/_130__cf__1334334501/quantized63678734" type="Const" version="opset1">
			<data element_type="i8" offset="152977" shape="512,256,1,1" size="131072"/>
			<output>
				<port id="0" precision="I8">
					<dim>512</dim>
					<dim>256</dim>
					<dim>1</dim>
					<dim>1</dim>
				</port>
			</output>
		</layer>
		<layer id="260" name="FeatureExtractor/MobilenetV1/Conv2d_6_pointwise/weights/read/_130__cf__1334334501/quantized/to_f16" type="Convert" version="opset1">
			<data destination_type="f16"/>
			<input>
				<port id="0">
					<dim>512</dim>
					<dim>256</dim>
					<dim>1</dim>
					<dim>1</dim>
				</port>
			</input>
			<output>
				<port id="1" precision="FP16">
					<dim>512</dim>
					<dim>256</dim>
					<dim>1</dim>
					<dim>1</dim>
				</port>
			</output>
		</layer>
		<layer id="261" name="FeatureExtractor/MobilenetV1/MobilenetV1/Conv2d_6_pointwise/BatchNorm/batchnorm/mul_1/fq_weights_1/zero_point63869022" type="Const" version="opset1">
			<data element_type="f16" offset="284049" shape="512,1,1,1" size="1024"/>
			<output>
				<port id="0" precision="FP16">
					<dim>512</dim>
					<dim>1</dim>
					<dim>1</dim>
					<dim>1</dim>
				</port>
			</output>
		</layer>
		<layer id="262" name="FeatureExtractor/MobilenetV1/MobilenetV1/Conv2d_6_pointwise/BatchNorm/batchnorm/mul_1/fq_weights_1/minus_zp" type="Subtract" version="opset1">
			<data auto_broadcast="numpy"/>
			<input>
				<port id="0">
					<dim>512</dim>
					<dim>256</dim>
					<dim>1</dim>
					<dim>1</dim>
				</port>
				<port id="1">
					<dim>512</dim>
					<dim>1</dim>
					<dim>1</dim>
					<dim>1</dim>
				</port>
			</input>
			<output>
				<port id="2" precision="FP16">
					<dim>512</dim>
					<dim>256</dim>
					<dim>1</dim>
					<dim>1</dim>
				</port>
			</output>
		</layer>
		<layer id="263" name="FeatureExtractor/MobilenetV1/MobilenetV1/Conv2d_6_pointwise/BatchNorm/batchnorm/mul_1/fq_weights_1/scale63758449" type="Const" version="opset1">
			<data element_type="f16" offset="285073" shape="512,1,1,1" size="1024"/>
			<output>
				<port id="0" precision="FP16">
					<dim>512</dim>
					<dim>1</dim>
					<dim>1</dim>
					<dim>1</dim>
				</port>
			</output>
		</layer>
		<layer id="264" name="FeatureExtractor/MobilenetV1/MobilenetV1/Conv2d_6_pointwise/BatchNorm/batchnorm/mul_1/fq_weights_1/mulpiply_by_scale" type="Multiply" version="opset1">
			<data auto_broadcast="numpy"/>
			<input>
				<port id="0">
					<dim>512</dim>
					<dim>256</dim>
					<dim>1</dim>
					<dim>1</dim>
				</port>
				<port id="1">
					<dim>512</dim>
					<dim>1</dim>
					<dim>1</dim>
					<dim>1</dim>
				</port>
			</input>
			<output>
				<port id="2" precision="FP16">
					<dim>512</dim>
					<dim>256</dim>
					<dim>1</dim>
					<dim>1</dim>
				</port>
			</output>
		</layer>
		<layer id="265" name="FeatureExtractor/MobilenetV1/MobilenetV1/Conv2d_6_pointwise/BatchNorm/batchnorm/mul_1" type="Convolution" version="opset1">
			<data auto_pad="same_upper" dilations="1,1" pads_begin="0,0" pads_end="0,0" strides="1,1"/>
			<input>
				<port id="0">
					<dim>1</dim>
					<dim>256</dim>
					<dim>19</dim>
					<dim>19</dim>
				</port>
				<port id="1">
					<dim>512</dim>
					<dim>256</dim>
					<dim>1</dim>
					<dim>1</dim>
				</port>
			</input>
			<output>
				<port id="2" names="FeatureExtractor/MobilenetV1/MobilenetV1/Conv2d_6_pointwise/BatchNorm/batchnorm/mul_1:0" precision="FP16">
					<dim>1</dim>
					<dim>512</dim>
					<dim>19</dim>
					<dim>19</dim>
				</port>
			</output>
		</layer>
		<layer id="266" name="FeatureExtractor/MobilenetV1/MobilenetV1/Conv2d_6_pointwise/BatchNorm/batchnorm/sub/_129__cf__1324358893" type="Const" version="opset1">
			<data element_type="f16" offset="286097" shape="1,512,1,1" size="1024"/>
			<output>
				<port id="0" names="FeatureExtractor/MobilenetV1/MobilenetV1/Conv2d_6_pointwise/BatchNorm/batchnorm/sub/_129__cf__132:0" precision="FP16">
					<dim>1</dim>
					<dim>512</dim>
					<dim>1</dim>
					<dim>1</dim>
				</port>
			</output>
		</layer>
		<layer id="267" name="FeatureExtractor/MobilenetV1/MobilenetV1/Conv2d_6_pointwise/BatchNorm/batchnorm/add_1" type="Add" version="opset1">
			<data auto_broadcast="numpy"/>
			<input>
				<port id="0">
					<dim>1</dim>
					<dim>512</dim>
					<dim>19</dim>
					<dim>19</dim>
				</port>
				<port id="1">
					<dim>1</dim>
					<dim>512</dim>
					<dim>1</dim>
					<dim>1</dim>
				</port>
			</input>
			<output>
				<port id="2" names="FeatureExtractor/MobilenetV1/MobilenetV1/Conv2d_6_pointwise/BatchNorm/batchnorm/add_1:0" precision="FP16">
					<dim>1</dim>
					<dim>512</dim>
					<dim>19</dim>
					<dim>19</dim>
				</port>
			</output>
		</layer>
		<layer id="268" name="FeatureExtractor/MobilenetV1/MobilenetV1/Conv2d_6_pointwise/Relu6" type="Clamp" version="opset1">
			<data max="6" min="0"/>
			<input>
				<port id="0">
					<dim>1</dim>
					<dim>512</dim>
					<dim>19</dim>
					<dim>19</dim>
				</port>
			</input>
			<output>
				<port id="1" names="FeatureExtractor/MobilenetV1/MobilenetV1/Conv2d_6_pointwise/Relu6:0" precision="FP16">
					<dim>1</dim>
					<dim>512</dim>
					<dim>19</dim>
					<dim>19</dim>
				</port>
			</output>
		</layer>
		<layer id="269" name="FeatureExtractor/MobilenetV1/MobilenetV1/Conv2d_7_depthwise/depthwise/fq_input_0" type="FakeQuantize" version="opset1">
			<data auto_broadcast="numpy" levels="256"/>
			<input>
				<port id="0">
					<dim>1</dim>
					<dim>512</dim>
					<dim>19</dim>
					<dim>19</dim>
				</port>
				<port id="1">
					<dim>1</dim>
					<dim>512</dim>
					<dim>1</dim>
					<dim>1</dim>
				</port>
				<port id="2">
					<dim>1</dim>
					<dim>512</dim>
					<dim>1</dim>
					<dim>1</dim>
				</port>
				<port id="3">
					<dim>1</dim>
					<dim>512</dim>
					<dim>1</dim>
					<dim>1</dim>
				</port>
				<port id="4">
					<dim>1</dim>
					<dim>512</dim>
					<dim>1</dim>
					<dim>1</dim>
				</port>
			</input>
			<output>
				<port id="5" precision="FP16">
					<dim>1</dim>
					<dim>512</dim>
					<dim>19</dim>
					<dim>19</dim>
				</port>
			</output>
		</layer>
		<layer id="270" name="7362/value73649376" type="Const" version="opset1">
			<data element_type="i64" offset="287121" shape="5" size="40"/>
			<output>
				<port id="0" precision="I64">
					<dim>5</dim>
				</port>
			</output>
		</layer>
		<layer id="271" name="FeatureExtractor/MobilenetV1/MobilenetV1/Conv2d_7_depthwise/BatchNorm/batchnorm/mul_1_copy4384503/quantized63978566" type="Const" version="opset1">
			<data element_type="i8" offset="287161" shape="512,1,3,3" size="4608"/>
			<output>
				<port id="0" precision="I8">
					<dim>512</dim>
					<dim>1</dim>
					<dim>3</dim>
					<dim>3</dim>
				</port>
			</output>
		</layer>
		<layer id="272" name="FeatureExtractor/MobilenetV1/MobilenetV1/Conv2d_7_depthwise/BatchNorm/batchnorm/mul_1_copy4384503/quantized/to_f16" type="Convert" version="opset1">
			<data destination_type="f16"/>
			<input>
				<port id="0">
					<dim>512</dim>
					<dim>1</dim>
					<dim>3</dim>
					<dim>3</dim>
				</port>
			</input>
			<output>
				<port id="1" precision="FP16">
					<dim>512</dim>
					<dim>1</dim>
					<dim>3</dim>
					<dim>3</dim>
				</port>
			</output>
		</layer>
		<layer id="273" name="FeatureExtractor/MobilenetV1/MobilenetV1/Conv2d_7_depthwise/depthwise/fq_weights_1/zero_point64168821" type="Const" version="opset1">
			<data element_type="f16" offset="291769" shape="512,1,1,1" size="1024"/>
			<output>
				<port id="0" precision="FP16">
					<dim>512</dim>
					<dim>1</dim>
					<dim>1</dim>
					<dim>1</dim>
				</port>
			</output>
		</layer>
		<layer id="274" name="FeatureExtractor/MobilenetV1/MobilenetV1/Conv2d_7_depthwise/depthwise/fq_weights_1/minus_zp" type="Subtract" version="opset1">
			<data auto_broadcast="numpy"/>
			<input>
				<port id="0">
					<dim>512</dim>
					<dim>1</dim>
					<dim>3</dim>
					<dim>3</dim>
				</port>
				<port id="1">
					<dim>512</dim>
					<dim>1</dim>
					<dim>1</dim>
					<dim>1</dim>
				</port>
			</input>
			<output>
				<port id="2" precision="FP16">
					<dim>512</dim>
					<dim>1</dim>
					<dim>3</dim>
					<dim>3</dim>
				</port>
			</output>
		</layer>
		<layer id="275" name="FeatureExtractor/MobilenetV1/MobilenetV1/Conv2d_7_depthwise/depthwise/fq_weights_1/scale64058833" type="Const" version="opset1">
			<data element_type="f16" offset="292793" shape="512,1,1,1" size="1024"/>
			<output>
				<port id="0" precision="FP16">
					<dim>512</dim>
					<dim>1</dim>
					<dim>1</dim>
					<dim>1</dim>
				</port>
			</output>
		</layer>
		<layer id="276" name="FeatureExtractor/MobilenetV1/MobilenetV1/Conv2d_7_depthwise/depthwise/fq_weights_1/mulpiply_by_scale" type="Multiply" version="opset1">
			<data auto_broadcast="numpy"/>
			<input>
				<port id="0">
					<dim>512</dim>
					<dim>1</dim>
					<dim>3</dim>
					<dim>3</dim>
				</port>
				<port id="1">
					<dim>512</dim>
					<dim>1</dim>
					<dim>1</dim>
					<dim>1</dim>
				</port>
			</input>
			<output>
				<port id="2" precision="FP16">
					<dim>512</dim>
					<dim>1</dim>
					<dim>3</dim>
					<dim>3</dim>
				</port>
			</output>
		</layer>
		<layer id="277" name="7362" type="Reshape" version="opset1">
			<data special_zero="true"/>
			<input>
				<port id="0">
					<dim>512</dim>
					<dim>1</dim>
					<dim>3</dim>
					<dim>3</dim>
				</port>
				<port id="1">
					<dim>5</dim>
				</port>
			</input>
			<output>
				<port id="2" precision="FP16">
					<dim>512</dim>
					<dim>1</dim>
					<dim>1</dim>
					<dim>3</dim>
					<dim>3</dim>
				</port>
			</output>
		</layer>
		<layer id="278" name="FeatureExtractor/MobilenetV1/MobilenetV1/Conv2d_7_depthwise/depthwise" type="GroupConvolution" version="opset1">
			<data auto_pad="same_upper" dilations="1,1" pads_begin="0,0" pads_end="0,0" strides="1,1"/>
			<input>
				<port id="0">
					<dim>1</dim>
					<dim>512</dim>
					<dim>19</dim>
					<dim>19</dim>
				</port>
				<port id="1">
					<dim>512</dim>
					<dim>1</dim>
					<dim>1</dim>
					<dim>3</dim>
					<dim>3</dim>
				</port>
			</input>
			<output>
				<port id="2" names="FeatureExtractor/MobilenetV1/MobilenetV1/Conv2d_7_depthwise/BatchNorm/batchnorm/mul_1:0" precision="FP16">
					<dim>1</dim>
					<dim>512</dim>
					<dim>19</dim>
					<dim>19</dim>
				</port>
			</output>
		</layer>
		<layer id="279" name="FeatureExtractor/MobilenetV1/MobilenetV1/Conv2d_7_depthwise/BatchNorm/batchnorm/sub/_126__cf__1294408437" type="Const" version="opset1">
			<data element_type="f16" offset="293817" shape="1,512,1,1" size="1024"/>
			<output>
				<port id="0" names="FeatureExtractor/MobilenetV1/MobilenetV1/Conv2d_7_depthwise/BatchNorm/batchnorm/sub/_126__cf__129:0" precision="FP16">
					<dim>1</dim>
					<dim>512</dim>
					<dim>1</dim>
					<dim>1</dim>
				</port>
			</output>
		</layer>
		<layer id="280" name="FeatureExtractor/MobilenetV1/MobilenetV1/Conv2d_7_depthwise/BatchNorm/batchnorm/add_1" type="Add" version="opset1">
			<data auto_broadcast="numpy"/>
			<input>
				<port id="0">
					<dim>1</dim>
					<dim>512</dim>
					<dim>19</dim>
					<dim>19</dim>
				</port>
				<port id="1">
					<dim>1</dim>
					<dim>512</dim>
					<dim>1</dim>
					<dim>1</dim>
				</port>
			</input>
			<output>
				<port id="2" names="FeatureExtractor/MobilenetV1/MobilenetV1/Conv2d_7_depthwise/BatchNorm/batchnorm/add_1:0" precision="FP16">
					<dim>1</dim>
					<dim>512</dim>
					<dim>19</dim>
					<dim>19</dim>
				</port>
			</output>
		</layer>
		<layer id="281" name="FeatureExtractor/MobilenetV1/MobilenetV1/Conv2d_7_depthwise/Relu6" type="Clamp" version="opset1">
			<data max="6" min="0"/>
			<input>
				<port id="0">
					<dim>1</dim>
					<dim>512</dim>
					<dim>19</dim>
					<dim>19</dim>
				</port>
			</input>
			<output>
				<port id="1" names="FeatureExtractor/MobilenetV1/MobilenetV1/Conv2d_7_depthwise/Relu6:0" precision="FP16">
					<dim>1</dim>
					<dim>512</dim>
					<dim>19</dim>
					<dim>19</dim>
				</port>
			</output>
		</layer>
		<layer id="282" name="FeatureExtractor/MobilenetV1/MobilenetV1/Conv2d_7_pointwise/BatchNorm/batchnorm/mul_1/fq_input_0" type="FakeQuantize" version="opset1">
			<data auto_broadcast="numpy" levels="256"/>
			<input>
				<port id="0">
					<dim>1</dim>
					<dim>512</dim>
					<dim>19</dim>
					<dim>19</dim>
				</port>
				<port id="1"/>
				<port id="2"/>
				<port id="3"/>
				<port id="4"/>
			</input>
			<output>
				<port id="5" precision="FP16">
					<dim>1</dim>
					<dim>512</dim>
					<dim>19</dim>
					<dim>19</dim>
				</port>
			</output>
		</layer>
		<layer id="283" name="FeatureExtractor/MobilenetV1/Conv2d_7_pointwise/weights/read/_124__cf__1274434505/quantized54679067" type="Const" version="opset1">
			<data element_type="i8" offset="294841" shape="512,512,1,1" size="262144"/>
			<output>
				<port id="0" precision="I8">
					<dim>512</dim>
					<dim>512</dim>
					<dim>1</dim>
					<dim>1</dim>
				</port>
			</output>
		</layer>
		<layer id="284" name="FeatureExtractor/MobilenetV1/Conv2d_7_pointwise/weights/read/_124__cf__1274434505/quantized/to_f16" type="Convert" version="opset1">
			<data destination_type="f16"/>
			<input>
				<port id="0">
					<dim>512</dim>
					<dim>512</dim>
					<dim>1</dim>
					<dim>1</dim>
				</port>
			</input>
			<output>
				<port id="1" precision="FP16">
					<dim>512</dim>
					<dim>512</dim>
					<dim>1</dim>
					<dim>1</dim>
				</port>
			</output>
		</layer>
		<layer id="285" name="FeatureExtractor/MobilenetV1/MobilenetV1/Conv2d_7_pointwise/BatchNorm/batchnorm/mul_1/fq_weights_1/zero_point54869124" type="Const" version="opset1">
			<data element_type="f16" offset="556985" shape="512,1,1,1" size="1024"/>
			<output>
				<port id="0" precision="FP16">
					<dim>512</dim>
					<dim>1</dim>
					<dim>1</dim>
					<dim>1</dim>
				</port>
			</output>
		</layer>
		<layer id="286" name="FeatureExtractor/MobilenetV1/MobilenetV1/Conv2d_7_pointwise/BatchNorm/batchnorm/mul_1/fq_weights_1/minus_zp" type="Subtract" version="opset1">
			<data auto_broadcast="numpy"/>
			<input>
				<port id="0">
					<dim>512</dim>
					<dim>512</dim>
					<dim>1</dim>
					<dim>1</dim>
				</port>
				<port id="1">
					<dim>512</dim>
					<dim>1</dim>
					<dim>1</dim>
					<dim>1</dim>
				</port>
			</input>
			<output>
				<port id="2" precision="FP16">
					<dim>512</dim>
					<dim>512</dim>
					<dim>1</dim>
					<dim>1</dim>
				</port>
			</output>
		</layer>
		<layer id="287" name="FeatureExtractor/MobilenetV1/MobilenetV1/Conv2d_7_pointwise/BatchNorm/batchnorm/mul_1/fq_weights_1/scale54759121" type="Const" version="opset1">
			<data element_type="f16" offset="558009" shape="512,1,1,1" size="1024"/>
			<output>
				<port id="0" precision="FP16">
					<dim>512</dim>
					<dim>1</dim>
					<dim>1</dim>
					<dim>1</dim>
				</port>
			</output>
		</layer>
		<layer id="288" name="FeatureExtractor/MobilenetV1/MobilenetV1/Conv2d_7_pointwise/BatchNorm/batchnorm/mul_1/fq_weights_1/mulpiply_by_scale" type="Multiply" version="opset1">
			<data auto_broadcast="numpy"/>
			<input>
				<port id="0">
					<dim>512</dim>
					<dim>512</dim>
					<dim>1</dim>
					<dim>1</dim>
				</port>
				<port id="1">
					<dim>512</dim>
					<dim>1</dim>
					<dim>1</dim>
					<dim>1</dim>
				</port>
			</input>
			<output>
				<port id="2" precision="FP16">
					<dim>512</dim>
					<dim>512</dim>
					<dim>1</dim>
					<dim>1</dim>
				</port>
			</output>
		</layer>
		<layer id="289" name="FeatureExtractor/MobilenetV1/MobilenetV1/Conv2d_7_pointwise/BatchNorm/batchnorm/mul_1" type="Convolution" version="opset1">
			<data auto_pad="same_upper" dilations="1,1" pads_begin="0,0" pads_end="0,0" strides="1,1"/>
			<input>
				<port id="0">
					<dim>1</dim>
					<dim>512</dim>
					<dim>19</dim>
					<dim>19</dim>
				</port>
				<port id="1">
					<dim>512</dim>
					<dim>512</dim>
					<dim>1</dim>
					<dim>1</dim>
				</port>
			</input>
			<output>
				<port id="2" names="FeatureExtractor/MobilenetV1/MobilenetV1/Conv2d_7_pointwise/BatchNorm/batchnorm/mul_1:0" precision="FP16">
					<dim>1</dim>
					<dim>512</dim>
					<dim>19</dim>
					<dim>19</dim>
				</port>
			</output>
		</layer>
		<layer id="290" name="FeatureExtractor/MobilenetV1/MobilenetV1/Conv2d_7_pointwise/BatchNorm/batchnorm/sub/_123__cf__1264459382" type="Const" version="opset1">
			<data element_type="f16" offset="559033" shape="1,512,1,1" size="1024"/>
			<output>
				<port id="0" names="FeatureExtractor/MobilenetV1/MobilenetV1/Conv2d_7_pointwise/BatchNorm/batchnorm/sub/_123__cf__126:0" precision="FP16">
					<dim>1</dim>
					<dim>512</dim>
					<dim>1</dim>
					<dim>1</dim>
				</port>
			</output>
		</layer>
		<layer id="291" name="FeatureExtractor/MobilenetV1/MobilenetV1/Conv2d_7_pointwise/BatchNorm/batchnorm/add_1" type="Add" version="opset1">
			<data auto_broadcast="numpy"/>
			<input>
				<port id="0">
					<dim>1</dim>
					<dim>512</dim>
					<dim>19</dim>
					<dim>19</dim>
				</port>
				<port id="1">
					<dim>1</dim>
					<dim>512</dim>
					<dim>1</dim>
					<dim>1</dim>
				</port>
			</input>
			<output>
				<port id="2" names="FeatureExtractor/MobilenetV1/MobilenetV1/Conv2d_7_pointwise/BatchNorm/batchnorm/add_1:0" precision="FP16">
					<dim>1</dim>
					<dim>512</dim>
					<dim>19</dim>
					<dim>19</dim>
				</port>
			</output>
		</layer>
		<layer id="292" name="FeatureExtractor/MobilenetV1/MobilenetV1/Conv2d_7_pointwise/Relu6" type="Clamp" version="opset1">
			<data max="6" min="0"/>
			<input>
				<port id="0">
					<dim>1</dim>
					<dim>512</dim>
					<dim>19</dim>
					<dim>19</dim>
				</port>
			</input>
			<output>
				<port id="1" names="FeatureExtractor/MobilenetV1/MobilenetV1/Conv2d_7_pointwise/Relu6:0" precision="FP16">
					<dim>1</dim>
					<dim>512</dim>
					<dim>19</dim>
					<dim>19</dim>
				</port>
			</output>
		</layer>
		<layer id="293" name="FeatureExtractor/MobilenetV1/MobilenetV1/Conv2d_8_depthwise/depthwise/fq_input_0" type="FakeQuantize" version="opset1">
			<data auto_broadcast="numpy" levels="256"/>
			<input>
				<port id="0">
					<dim>1</dim>
					<dim>512</dim>
					<dim>19</dim>
					<dim>19</dim>
				</port>
				<port id="1">
					<dim>1</dim>
					<dim>512</dim>
					<dim>1</dim>
					<dim>1</dim>
				</port>
				<port id="2">
					<dim>1</dim>
					<dim>512</dim>
					<dim>1</dim>
					<dim>1</dim>
				</port>
				<port id="3">
					<dim>1</dim>
					<dim>512</dim>
					<dim>1</dim>
					<dim>1</dim>
				</port>
				<port id="4">
					<dim>1</dim>
					<dim>512</dim>
					<dim>1</dim>
					<dim>1</dim>
				</port>
			</input>
			<output>
				<port id="5" precision="FP16">
					<dim>1</dim>
					<dim>512</dim>
					<dim>19</dim>
					<dim>19</dim>
				</port>
			</output>
		</layer>
		<layer id="294" name="7366/value73689304" type="Const" version="opset1">
			<data element_type="i64" offset="287121" shape="5" size="40"/>
			<output>
				<port id="0" precision="I64">
					<dim>5</dim>
				</port>
			</output>
		</layer>
		<layer id="295" name="FeatureExtractor/MobilenetV1/MobilenetV1/Conv2d_8_depthwise/BatchNorm/batchnorm/mul_1_copy4484507/quantized58879247" type="Const" version="opset1">
			<data element_type="i8" offset="560057" shape="512,1,3,3" size="4608"/>
			<output>
				<port id="0" precision="I8">
					<dim>512</dim>
					<dim>1</dim>
					<dim>3</dim>
					<dim>3</dim>
				</port>
			</output>
		</layer>
		<layer id="296" name="FeatureExtractor/MobilenetV1/MobilenetV1/Conv2d_8_depthwise/BatchNorm/batchnorm/mul_1_copy4484507/quantized/to_f16" type="Convert" version="opset1">
			<data destination_type="f16"/>
			<input>
				<port id="0">
					<dim>512</dim>
					<dim>1</dim>
					<dim>3</dim>
					<dim>3</dim>
				</port>
			</input>
			<output>
				<port id="1" precision="FP16">
					<dim>512</dim>
					<dim>1</dim>
					<dim>3</dim>
					<dim>3</dim>
				</port>
			</output>
		</layer>
		<layer id="297" name="FeatureExtractor/MobilenetV1/MobilenetV1/Conv2d_8_depthwise/depthwise/fq_weights_1/zero_point59068980" type="Const" version="opset1">
			<data element_type="f16" offset="564665" shape="512,1,1,1" size="1024"/>
			<output>
				<port id="0" precision="FP16">
					<dim>512</dim>
					<dim>1</dim>
					<dim>1</dim>
					<dim>1</dim>
				</port>
			</output>
		</layer>
		<layer id="298" name="FeatureExtractor/MobilenetV1/MobilenetV1/Conv2d_8_depthwise/depthwise/fq_weights_1/minus_zp" type="Subtract" version="opset1">
			<data auto_broadcast="numpy"/>
			<input>
				<port id="0">
					<dim>512</dim>
					<dim>1</dim>
					<dim>3</dim>
					<dim>3</dim>
				</port>
				<port id="1">
					<dim>512</dim>
					<dim>1</dim>
					<dim>1</dim>
					<dim>1</dim>
				</port>
			</input>
			<output>
				<port id="2" precision="FP16">
					<dim>512</dim>
					<dim>1</dim>
					<dim>3</dim>
					<dim>3</dim>
				</port>
			</output>
		</layer>
		<layer id="299" name="FeatureExtractor/MobilenetV1/MobilenetV1/Conv2d_8_depthwise/depthwise/fq_weights_1/scale58958689" type="Const" version="opset1">
			<data element_type="f16" offset="565689" shape="512,1,1,1" size="1024"/>
			<output>
				<port id="0" precision="FP16">
					<dim>512</dim>
					<dim>1</dim>
					<dim>1</dim>
					<dim>1</dim>
				</port>
			</output>
		</layer>
		<layer id="300" name="FeatureExtractor/MobilenetV1/MobilenetV1/Conv2d_8_depthwise/depthwise/fq_weights_1/mulpiply_by_scale" type="Multiply" version="opset1">
			<data auto_broadcast="numpy"/>
			<input>
				<port id="0">
					<dim>512</dim>
					<dim>1</dim>
					<dim>3</dim>
					<dim>3</dim>
				</port>
				<port id="1">
					<dim>512</dim>
					<dim>1</dim>
					<dim>1</dim>
					<dim>1</dim>
				</port>
			</input>
			<output>
				<port id="2" precision="FP16">
					<dim>512</dim>
					<dim>1</dim>
					<dim>3</dim>
					<dim>3</dim>
				</port>
			</output>
		</layer>
		<layer id="301" name="7366" type="Reshape" version="opset1">
			<data special_zero="true"/>
			<input>
				<port id="0">
					<dim>512</dim>
					<dim>1</dim>
					<dim>3</dim>
					<dim>3</dim>
				</port>
				<port id="1">
					<dim>5</dim>
				</port>
			</input>
			<output>
				<port id="2" precision="FP16">
					<dim>512</dim>
					<dim>1</dim>
					<dim>1</dim>
					<dim>3</dim>
					<dim>3</dim>
				</port>
			</output>
		</layer>
		<layer id="302" name="FeatureExtractor/MobilenetV1/MobilenetV1/Conv2d_8_depthwise/depthwise" type="GroupConvolution" version="opset1">
			<data auto_pad="same_upper" dilations="1,1" pads_begin="0,0" pads_end="0,0" strides="1,1"/>
			<input>
				<port id="0">
					<dim>1</dim>
					<dim>512</dim>
					<dim>19</dim>
					<dim>19</dim>
				</port>
				<port id="1">
					<dim>512</dim>
					<dim>1</dim>
					<dim>1</dim>
					<dim>3</dim>
					<dim>3</dim>
				</port>
			</input>
			<output>
				<port id="2" names="FeatureExtractor/MobilenetV1/MobilenetV1/Conv2d_8_depthwise/BatchNorm/batchnorm/mul_1:0" precision="FP16">
					<dim>1</dim>
					<dim>512</dim>
					<dim>19</dim>
					<dim>19</dim>
				</port>
			</output>
		</layer>
		<layer id="303" name="FeatureExtractor/MobilenetV1/MobilenetV1/Conv2d_8_depthwise/BatchNorm/batchnorm/sub/_120__cf__1234508596" type="Const" version="opset1">
			<data element_type="f16" offset="566713" shape="1,512,1,1" size="1024"/>
			<output>
				<port id="0" names="FeatureExtractor/MobilenetV1/MobilenetV1/Conv2d_8_depthwise/BatchNorm/batchnorm/sub/_120__cf__123:0" precision="FP16">
					<dim>1</dim>
					<dim>512</dim>
					<dim>1</dim>
					<dim>1</dim>
				</port>
			</output>
		</layer>
		<layer id="304" name="FeatureExtractor/MobilenetV1/MobilenetV1/Conv2d_8_depthwise/BatchNorm/batchnorm/add_1" type="Add" version="opset1">
			<data auto_broadcast="numpy"/>
			<input>
				<port id="0">
					<dim>1</dim>
					<dim>512</dim>
					<dim>19</dim>
					<dim>19</dim>
				</port>
				<port id="1">
					<dim>1</dim>
					<dim>512</dim>
					<dim>1</dim>
					<dim>1</dim>
				</port>
			</input>
			<output>
				<port id="2" names="FeatureExtractor/MobilenetV1/MobilenetV1/Conv2d_8_depthwise/BatchNorm/batchnorm/add_1:0" precision="FP16">
					<dim>1</dim>
					<dim>512</dim>
					<dim>19</dim>
					<dim>19</dim>
				</port>
			</output>
		</layer>
		<layer id="305" name="FeatureExtractor/MobilenetV1/MobilenetV1/Conv2d_8_depthwise/Relu6" type="Clamp" version="opset1">
			<data max="6" min="0"/>
			<input>
				<port id="0">
					<dim>1</dim>
					<dim>512</dim>
					<dim>19</dim>
					<dim>19</dim>
				</port>
			</input>
			<output>
				<port id="1" names="FeatureExtractor/MobilenetV1/MobilenetV1/Conv2d_8_depthwise/Relu6:0" precision="FP16">
					<dim>1</dim>
					<dim>512</dim>
					<dim>19</dim>
					<dim>19</dim>
				</port>
			</output>
		</layer>
		<layer id="306" name="FeatureExtractor/MobilenetV1/MobilenetV1/Conv2d_8_pointwise/BatchNorm/batchnorm/mul_1/fq_input_0" type="FakeQuantize" version="opset1">
			<data auto_broadcast="numpy" levels="256"/>
			<input>
				<port id="0">
					<dim>1</dim>
					<dim>512</dim>
					<dim>19</dim>
					<dim>19</dim>
				</port>
				<port id="1"/>
				<port id="2"/>
				<port id="3"/>
				<port id="4"/>
			</input>
			<output>
				<port id="5" precision="FP16">
					<dim>1</dim>
					<dim>512</dim>
					<dim>19</dim>
					<dim>19</dim>
				</port>
			</output>
		</layer>
		<layer id="307" name="FeatureExtractor/MobilenetV1/Conv2d_8_pointwise/weights/read/_118__cf__1214534509/quantized58278299" type="Const" version="opset1">
			<data element_type="i8" offset="567737" shape="512,512,1,1" size="262144"/>
			<output>
				<port id="0" precision="I8">
					<dim>512</dim>
					<dim>512</dim>
					<dim>1</dim>
					<dim>1</dim>
				</port>
			</output>
		</layer>
		<layer id="308" name="FeatureExtractor/MobilenetV1/Conv2d_8_pointwise/weights/read/_118__cf__1214534509/quantized/to_f16" type="Convert" version="opset1">
			<data destination_type="f16"/>
			<input>
				<port id="0">
					<dim>512</dim>
					<dim>512</dim>
					<dim>1</dim>
					<dim>1</dim>
				</port>
			</input>
			<output>
				<port id="1" precision="FP16">
					<dim>512</dim>
					<dim>512</dim>
					<dim>1</dim>
					<dim>1</dim>
				</port>
			</output>
		</layer>
		<layer id="309" name="FeatureExtractor/MobilenetV1/MobilenetV1/Conv2d_8_pointwise/BatchNorm/batchnorm/mul_1/fq_weights_1/zero_point58469490" type="Const" version="opset1">
			<data element_type="f16" offset="829881" shape="512,1,1,1" size="1024"/>
			<output>
				<port id="0" precision="FP16">
					<dim>512</dim>
					<dim>1</dim>
					<dim>1</dim>
					<dim>1</dim>
				</port>
			</output>
		</layer>
		<layer id="310" name="FeatureExtractor/MobilenetV1/MobilenetV1/Conv2d_8_pointwise/BatchNorm/batchnorm/mul_1/fq_weights_1/minus_zp" type="Subtract" version="opset1">
			<data auto_broadcast="numpy"/>
			<input>
				<port id="0">
					<dim>512</dim>
					<dim>512</dim>
					<dim>1</dim>
					<dim>1</dim>
				</port>
				<port id="1">
					<dim>512</dim>
					<dim>1</dim>
					<dim>1</dim>
					<dim>1</dim>
				</port>
			</input>
			<output>
				<port id="2" precision="FP16">
					<dim>512</dim>
					<dim>512</dim>
					<dim>1</dim>
					<dim>1</dim>
				</port>
			</output>
		</layer>
		<layer id="311" name="FeatureExtractor/MobilenetV1/MobilenetV1/Conv2d_8_pointwise/BatchNorm/batchnorm/mul_1/fq_weights_1/scale58358722" type="Const" version="opset1">
			<data element_type="f16" offset="830905" shape="512,1,1,1" size="1024"/>
			<output>
				<port id="0" precision="FP16">
					<dim>512</dim>
					<dim>1</dim>
					<dim>1</dim>
					<dim>1</dim>
				</port>
			</output>
		</layer>
		<layer id="312" name="FeatureExtractor/MobilenetV1/MobilenetV1/Conv2d_8_pointwise/BatchNorm/batchnorm/mul_1/fq_weights_1/mulpiply_by_scale" type="Multiply" version="opset1">
			<data auto_broadcast="numpy"/>
			<input>
				<port id="0">
					<dim>512</dim>
					<dim>512</dim>
					<dim>1</dim>
					<dim>1</dim>
				</port>
				<port id="1">
					<dim>512</dim>
					<dim>1</dim>
					<dim>1</dim>
					<dim>1</dim>
				</port>
			</input>
			<output>
				<port id="2" precision="FP16">
					<dim>512</dim>
					<dim>512</dim>
					<dim>1</dim>
					<dim>1</dim>
				</port>
			</output>
		</layer>
		<layer id="313" name="FeatureExtractor/MobilenetV1/MobilenetV1/Conv2d_8_pointwise/BatchNorm/batchnorm/mul_1" type="Convolution" version="opset1">
			<data auto_pad="same_upper" dilations="1,1" pads_begin="0,0" pads_end="0,0" strides="1,1"/>
			<input>
				<port id="0">
					<dim>1</dim>
					<dim>512</dim>
					<dim>19</dim>
					<dim>19</dim>
				</port>
				<port id="1">
					<dim>512</dim>
					<dim>512</dim>
					<dim>1</dim>
					<dim>1</dim>
				</port>
			</input>
			<output>
				<port id="2" names="FeatureExtractor/MobilenetV1/MobilenetV1/Conv2d_8_pointwise/BatchNorm/batchnorm/mul_1:0" precision="FP16">
					<dim>1</dim>
					<dim>512</dim>
					<dim>19</dim>
					<dim>19</dim>
				</port>
			</output>
		</layer>
		<layer id="314" name="FeatureExtractor/MobilenetV1/MobilenetV1/Conv2d_8_pointwise/BatchNorm/batchnorm/sub/_117__cf__1204559295" type="Const" version="opset1">
			<data element_type="f16" offset="831929" shape="1,512,1,1" size="1024"/>
			<output>
				<port id="0" names="FeatureExtractor/MobilenetV1/MobilenetV1/Conv2d_8_pointwise/BatchNorm/batchnorm/sub/_117__cf__120:0" precision="FP16">
					<dim>1</dim>
					<dim>512</dim>
					<dim>1</dim>
					<dim>1</dim>
				</port>
			</output>
		</layer>
		<layer id="315" name="FeatureExtractor/MobilenetV1/MobilenetV1/Conv2d_8_pointwise/BatchNorm/batchnorm/add_1" type="Add" version="opset1">
			<data auto_broadcast="numpy"/>
			<input>
				<port id="0">
					<dim>1</dim>
					<dim>512</dim>
					<dim>19</dim>
					<dim>19</dim>
				</port>
				<port id="1">
					<dim>1</dim>
					<dim>512</dim>
					<dim>1</dim>
					<dim>1</dim>
				</port>
			</input>
			<output>
				<port id="2" names="FeatureExtractor/MobilenetV1/MobilenetV1/Conv2d_8_pointwise/BatchNorm/batchnorm/add_1:0" precision="FP16">
					<dim>1</dim>
					<dim>512</dim>
					<dim>19</dim>
					<dim>19</dim>
				</port>
			</output>
		</layer>
		<layer id="316" name="FeatureExtractor/MobilenetV1/MobilenetV1/Conv2d_8_pointwise/Relu6" type="Clamp" version="opset1">
			<data max="6" min="0"/>
			<input>
				<port id="0">
					<dim>1</dim>
					<dim>512</dim>
					<dim>19</dim>
					<dim>19</dim>
				</port>
			</input>
			<output>
				<port id="1" names="FeatureExtractor/MobilenetV1/MobilenetV1/Conv2d_8_pointwise/Relu6:0" precision="FP16">
					<dim>1</dim>
					<dim>512</dim>
					<dim>19</dim>
					<dim>19</dim>
				</port>
			</output>
		</layer>
		<layer id="317" name="FeatureExtractor/MobilenetV1/MobilenetV1/Conv2d_9_depthwise/depthwise/fq_input_0" type="FakeQuantize" version="opset1">
			<data auto_broadcast="numpy" levels="256"/>
			<input>
				<port id="0">
					<dim>1</dim>
					<dim>512</dim>
					<dim>19</dim>
					<dim>19</dim>
				</port>
				<port id="1">
					<dim>1</dim>
					<dim>512</dim>
					<dim>1</dim>
					<dim>1</dim>
				</port>
				<port id="2">
					<dim>1</dim>
					<dim>512</dim>
					<dim>1</dim>
					<dim>1</dim>
				</port>
				<port id="3">
					<dim>1</dim>
					<dim>512</dim>
					<dim>1</dim>
					<dim>1</dim>
				</port>
				<port id="4">
					<dim>1</dim>
					<dim>512</dim>
					<dim>1</dim>
					<dim>1</dim>
				</port>
			</input>
			<output>
				<port id="5" precision="FP16">
					<dim>1</dim>
					<dim>512</dim>
					<dim>19</dim>
					<dim>19</dim>
				</port>
			</output>
		</layer>
		<layer id="318" name="7370/value73729289" type="Const" version="opset1">
			<data element_type="i64" offset="287121" shape="5" size="40"/>
			<output>
				<port id="0" precision="I64">
					<dim>5</dim>
				</port>
			</output>
		</layer>
		<layer id="319" name="FeatureExtractor/MobilenetV1/MobilenetV1/Conv2d_9_depthwise/BatchNorm/batchnorm/mul_1_copy4584511/quantized61578470" type="Const" version="opset1">
			<data element_type="i8" offset="832953" shape="512,1,3,3" size="4608"/>
			<output>
				<port id="0" precision="I8">
					<dim>512</dim>
					<dim>1</dim>
					<dim>3</dim>
					<dim>3</dim>
				</port>
			</output>
		</layer>
		<layer id="320" name="FeatureExtractor/MobilenetV1/MobilenetV1/Conv2d_9_depthwise/BatchNorm/batchnorm/mul_1_copy4584511/quantized/to_f16" type="Convert" version="opset1">
			<data destination_type="f16"/>
			<input>
				<port id="0">
					<dim>512</dim>
					<dim>1</dim>
					<dim>3</dim>
					<dim>3</dim>
				</port>
			</input>
			<output>
				<port id="1" precision="FP16">
					<dim>512</dim>
					<dim>1</dim>
					<dim>3</dim>
					<dim>3</dim>
				</port>
			</output>
		</layer>
		<layer id="321" name="FeatureExtractor/MobilenetV1/MobilenetV1/Conv2d_9_depthwise/depthwise/fq_weights_1/zero_point61769277" type="Const" version="opset1">
			<data element_type="f16" offset="837561" shape="512,1,1,1" size="1024"/>
			<output>
				<port id="0" precision="FP16">
					<dim>512</dim>
					<dim>1</dim>
					<dim>1</dim>
					<dim>1</dim>
				</port>
			</output>
		</layer>
		<layer id="322" name="FeatureExtractor/MobilenetV1/MobilenetV1/Conv2d_9_depthwise/depthwise/fq_weights_1/minus_zp" type="Subtract" version="opset1">
			<data auto_broadcast="numpy"/>
			<input>
				<port id="0">
					<dim>512</dim>
					<dim>1</dim>
					<dim>3</dim>
					<dim>3</dim>
				</port>
				<port id="1">
					<dim>512</dim>
					<dim>1</dim>
					<dim>1</dim>
					<dim>1</dim>
				</port>
			</input>
			<output>
				<port id="2" precision="FP16">
					<dim>512</dim>
					<dim>1</dim>
					<dim>3</dim>
					<dim>3</dim>
				</port>
			</output>
		</layer>
		<layer id="323" name="FeatureExtractor/MobilenetV1/MobilenetV1/Conv2d_9_depthwise/depthwise/fq_weights_1/scale61659088" type="Const" version="opset1">
			<data element_type="f16" offset="838585" shape="512,1,1,1" size="1024"/>
			<output>
				<port id="0" precision="FP16">
					<dim>512</dim>
					<dim>1</dim>
					<dim>1</dim>
					<dim>1</dim>
				</port>
			</output>
		</layer>
		<layer id="324" name="FeatureExtractor/MobilenetV1/MobilenetV1/Conv2d_9_depthwise/depthwise/fq_weights_1/mulpiply_by_scale" type="Multiply" version="opset1">
			<data auto_broadcast="numpy"/>
			<input>
				<port id="0">
					<dim>512</dim>
					<dim>1</dim>
					<dim>3</dim>
					<dim>3</dim>
				</port>
				<port id="1">
					<dim>512</dim>
					<dim>1</dim>
					<dim>1</dim>
					<dim>1</dim>
				</port>
			</input>
			<output>
				<port id="2" precision="FP16">
					<dim>512</dim>
					<dim>1</dim>
					<dim>3</dim>
					<dim>3</dim>
				</port>
			</output>
		</layer>
		<layer id="325" name="7370" type="Reshape" version="opset1">
			<data special_zero="true"/>
			<input>
				<port id="0">
					<dim>512</dim>
					<dim>1</dim>
					<dim>3</dim>
					<dim>3</dim>
				</port>
				<port id="1">
					<dim>5</dim>
				</port>
			</input>
			<output>
				<port id="2" precision="FP16">
					<dim>512</dim>
					<dim>1</dim>
					<dim>1</dim>
					<dim>3</dim>
					<dim>3</dim>
				</port>
			</output>
		</layer>
		<layer id="326" name="FeatureExtractor/MobilenetV1/MobilenetV1/Conv2d_9_depthwise/depthwise" type="GroupConvolution" version="opset1">
			<data auto_pad="same_upper" dilations="1,1" pads_begin="0,0" pads_end="0,0" strides="1,1"/>
			<input>
				<port id="0">
					<dim>1</dim>
					<dim>512</dim>
					<dim>19</dim>
					<dim>19</dim>
				</port>
				<port id="1">
					<dim>512</dim>
					<dim>1</dim>
					<dim>1</dim>
					<dim>3</dim>
					<dim>3</dim>
				</port>
			</input>
			<output>
				<port id="2" names="FeatureExtractor/MobilenetV1/MobilenetV1/Conv2d_9_depthwise/BatchNorm/batchnorm/mul_1:0" precision="FP16">
					<dim>1</dim>
					<dim>512</dim>
					<dim>19</dim>
					<dim>19</dim>
				</port>
			</output>
		</layer>
		<layer id="327" name="FeatureExtractor/MobilenetV1/MobilenetV1/Conv2d_9_depthwise/BatchNorm/batchnorm/sub/_114__cf__1174609103" type="Const" version="opset1">
			<data element_type="f16" offset="839609" shape="1,512,1,1" size="1024"/>
			<output>
				<port id="0" names="FeatureExtractor/MobilenetV1/MobilenetV1/Conv2d_9_depthwise/BatchNorm/batchnorm/sub/_114__cf__117:0" precision="FP16">
					<dim>1</dim>
					<dim>512</dim>
					<dim>1</dim>
					<dim>1</dim>
				</port>
			</output>
		</layer>
		<layer id="328" name="FeatureExtractor/MobilenetV1/MobilenetV1/Conv2d_9_depthwise/BatchNorm/batchnorm/add_1" type="Add" version="opset1">
			<data auto_broadcast="numpy"/>
			<input>
				<port id="0">
					<dim>1</dim>
					<dim>512</dim>
					<dim>19</dim>
					<dim>19</dim>
				</port>
				<port id="1">
					<dim>1</dim>
					<dim>512</dim>
					<dim>1</dim>
					<dim>1</dim>
				</port>
			</input>
			<output>
				<port id="2" names="FeatureExtractor/MobilenetV1/MobilenetV1/Conv2d_9_depthwise/BatchNorm/batchnorm/add_1:0" precision="FP16">
					<dim>1</dim>
					<dim>512</dim>
					<dim>19</dim>
					<dim>19</dim>
				</port>
			</output>
		</layer>
		<layer id="329" name="FeatureExtractor/MobilenetV1/MobilenetV1/Conv2d_9_depthwise/Relu6" type="Clamp" version="opset1">
			<data max="6" min="0"/>
			<input>
				<port id="0">
					<dim>1</dim>
					<dim>512</dim>
					<dim>19</dim>
					<dim>19</dim>
				</port>
			</input>
			<output>
				<port id="1" names="FeatureExtractor/MobilenetV1/MobilenetV1/Conv2d_9_depthwise/Relu6:0" precision="FP16">
					<dim>1</dim>
					<dim>512</dim>
					<dim>19</dim>
					<dim>19</dim>
				</port>
			</output>
		</layer>
		<layer id="330" name="FeatureExtractor/MobilenetV1/MobilenetV1/Conv2d_9_pointwise/BatchNorm/batchnorm/mul_1/fq_input_0" type="FakeQuantize" version="opset1">
			<data auto_broadcast="numpy" levels="256"/>
			<input>
				<port id="0">
					<dim>1</dim>
					<dim>512</dim>
					<dim>19</dim>
					<dim>19</dim>
				</port>
				<port id="1"/>
				<port id="2"/>
				<port id="3"/>
				<port id="4"/>
			</input>
			<output>
				<port id="5" precision="FP16">
					<dim>1</dim>
					<dim>512</dim>
					<dim>19</dim>
					<dim>19</dim>
				</port>
			</output>
		</layer>
		<layer id="331" name="FeatureExtractor/MobilenetV1/Conv2d_9_pointwise/weights/read/_112__cf__1154634513/quantized51979220" type="Const" version="opset1">
			<data element_type="i8" offset="840633" shape="512,512,1,1" size="262144"/>
			<output>
				<port id="0" precision="I8">
					<dim>512</dim>
					<dim>512</dim>
					<dim>1</dim>
					<dim>1</dim>
				</port>
			</output>
		</layer>
		<layer id="332" name="FeatureExtractor/MobilenetV1/Conv2d_9_pointwise/weights/read/_112__cf__1154634513/quantized/to_f16" type="Convert" version="opset1">
			<data destination_type="f16"/>
			<input>
				<port id="0">
					<dim>512</dim>
					<dim>512</dim>
					<dim>1</dim>
					<dim>1</dim>
				</port>
			</input>
			<output>
				<port id="1" precision="FP16">
					<dim>512</dim>
					<dim>512</dim>
					<dim>1</dim>
					<dim>1</dim>
				</port>
			</output>
		</layer>
		<layer id="333" name="FeatureExtractor/MobilenetV1/MobilenetV1/Conv2d_9_pointwise/BatchNorm/batchnorm/mul_1/fq_weights_1/zero_point52169043" type="Const" version="opset1">
			<data element_type="f16" offset="1102777" shape="512,1,1,1" size="1024"/>
			<output>
				<port id="0" precision="FP16">
					<dim>512</dim>
					<dim>1</dim>
					<dim>1</dim>
					<dim>1</dim>
				</port>
			</output>
		</layer>
		<layer id="334" name="FeatureExtractor/MobilenetV1/MobilenetV1/Conv2d_9_pointwise/BatchNorm/batchnorm/mul_1/fq_weights_1/minus_zp" type="Subtract" version="opset1">
			<data auto_broadcast="numpy"/>
			<input>
				<port id="0">
					<dim>512</dim>
					<dim>512</dim>
					<dim>1</dim>
					<dim>1</dim>
				</port>
				<port id="1">
					<dim>512</dim>
					<dim>1</dim>
					<dim>1</dim>
					<dim>1</dim>
				</port>
			</input>
			<output>
				<port id="2" precision="FP16">
					<dim>512</dim>
					<dim>512</dim>
					<dim>1</dim>
					<dim>1</dim>
				</port>
			</output>
		</layer>
		<layer id="335" name="FeatureExtractor/MobilenetV1/MobilenetV1/Conv2d_9_pointwise/BatchNorm/batchnorm/mul_1/fq_weights_1/scale52058914" type="Const" version="opset1">
			<data element_type="f16" offset="1103801" shape="512,1,1,1" size="1024"/>
			<output>
				<port id="0" precision="FP16">
					<dim>512</dim>
					<dim>1</dim>
					<dim>1</dim>
					<dim>1</dim>
				</port>
			</output>
		</layer>
		<layer id="336" name="FeatureExtractor/MobilenetV1/MobilenetV1/Conv2d_9_pointwise/BatchNorm/batchnorm/mul_1/fq_weights_1/mulpiply_by_scale" type="Multiply" version="opset1">
			<data auto_broadcast="numpy"/>
			<input>
				<port id="0">
					<dim>512</dim>
					<dim>512</dim>
					<dim>1</dim>
					<dim>1</dim>
				</port>
				<port id="1">
					<dim>512</dim>
					<dim>1</dim>
					<dim>1</dim>
					<dim>1</dim>
				</port>
			</input>
			<output>
				<port id="2" precision="FP16">
					<dim>512</dim>
					<dim>512</dim>
					<dim>1</dim>
					<dim>1</dim>
				</port>
			</output>
		</layer>
		<layer id="337" name="FeatureExtractor/MobilenetV1/MobilenetV1/Conv2d_9_pointwise/BatchNorm/batchnorm/mul_1" type="Convolution" version="opset1">
			<data auto_pad="same_upper" dilations="1,1" pads_begin="0,0" pads_end="0,0" strides="1,1"/>
			<input>
				<port id="0">
					<dim>1</dim>
					<dim>512</dim>
					<dim>19</dim>
					<dim>19</dim>
				</port>
				<port id="1">
					<dim>512</dim>
					<dim>512</dim>
					<dim>1</dim>
					<dim>1</dim>
				</port>
			</input>
			<output>
				<port id="2" names="FeatureExtractor/MobilenetV1/MobilenetV1/Conv2d_9_pointwise/BatchNorm/batchnorm/mul_1:0" precision="FP16">
					<dim>1</dim>
					<dim>512</dim>
					<dim>19</dim>
					<dim>19</dim>
				</port>
			</output>
		</layer>
		<layer id="338" name="FeatureExtractor/MobilenetV1/MobilenetV1/Conv2d_9_pointwise/BatchNorm/batchnorm/sub/_111__cf__1144659454" type="Const" version="opset1">
			<data element_type="f16" offset="1104825" shape="1,512,1,1" size="1024"/>
			<output>
				<port id="0" names="FeatureExtractor/MobilenetV1/MobilenetV1/Conv2d_9_pointwise/BatchNorm/batchnorm/sub/_111__cf__114:0" precision="FP16">
					<dim>1</dim>
					<dim>512</dim>
					<dim>1</dim>
					<dim>1</dim>
				</port>
			</output>
		</layer>
		<layer id="339" name="FeatureExtractor/MobilenetV1/MobilenetV1/Conv2d_9_pointwise/BatchNorm/batchnorm/add_1" type="Add" version="opset1">
			<data auto_broadcast="numpy"/>
			<input>
				<port id="0">
					<dim>1</dim>
					<dim>512</dim>
					<dim>19</dim>
					<dim>19</dim>
				</port>
				<port id="1">
					<dim>1</dim>
					<dim>512</dim>
					<dim>1</dim>
					<dim>1</dim>
				</port>
			</input>
			<output>
				<port id="2" names="FeatureExtractor/MobilenetV1/MobilenetV1/Conv2d_9_pointwise/BatchNorm/batchnorm/add_1:0" precision="FP16">
					<dim>1</dim>
					<dim>512</dim>
					<dim>19</dim>
					<dim>19</dim>
				</port>
			</output>
		</layer>
		<layer id="340" name="FeatureExtractor/MobilenetV1/MobilenetV1/Conv2d_9_pointwise/Relu6" type="Clamp" version="opset1">
			<data max="6" min="0"/>
			<input>
				<port id="0">
					<dim>1</dim>
					<dim>512</dim>
					<dim>19</dim>
					<dim>19</dim>
				</port>
			</input>
			<output>
				<port id="1" names="FeatureExtractor/MobilenetV1/MobilenetV1/Conv2d_9_pointwise/Relu6:0" precision="FP16">
					<dim>1</dim>
					<dim>512</dim>
					<dim>19</dim>
					<dim>19</dim>
				</port>
			</output>
		</layer>
		<layer id="341" name="FeatureExtractor/MobilenetV1/MobilenetV1/Conv2d_10_depthwise/depthwise/fq_input_0" type="FakeQuantize" version="opset1">
			<data auto_broadcast="numpy" levels="256"/>
			<input>
				<port id="0">
					<dim>1</dim>
					<dim>512</dim>
					<dim>19</dim>
					<dim>19</dim>
				</port>
				<port id="1">
					<dim>1</dim>
					<dim>512</dim>
					<dim>1</dim>
					<dim>1</dim>
				</port>
				<port id="2">
…
		<edge from-layer="220" from-port="1" to-layer="221" to-port="0"/>
		<edge from-layer="56" from-port="0" to-layer="221" to-port="1"/>
		<edge from-layer="57" from-port="0" to-layer="221" to-port="2"/>
		<edge from-layer="58" from-port="0" to-layer="221" to-port="3"/>
		<edge from-layer="59" from-port="0" to-layer="221" to-port="4"/>
		<edge from-layer="223" from-port="0" to-layer="224" to-port="0"/>
		<edge from-layer="224" from-port="1" to-layer="226" to-port="0"/>
		<edge from-layer="225" from-port="0" to-layer="226" to-port="1"/>
		<edge from-layer="226" from-port="2" to-layer="228" to-port="0"/>
		<edge from-layer="227" from-port="0" to-layer="228" to-port="1"/>
		<edge from-layer="228" from-port="2" to-layer="229" to-port="0"/>
		<edge from-layer="222" from-port="0" to-layer="229" to-port="1"/>
		<edge from-layer="221" from-port="5" to-layer="230" to-port="0"/>
		<edge from-layer="229" from-port="2" to-layer="230" to-port="1"/>
		<edge from-layer="230" from-port="2" to-layer="232" to-port="0"/>
		<edge from-layer="231" from-port="0" to-layer="232" to-port="1"/>
		<edge from-layer="232" from-port="2" to-layer="233" to-port="0"/>
		<edge from-layer="233" from-port="1" to-layer="234" to-port="0"/>
		<edge from-layer="52" from-port="0" to-layer="234" to-port="1"/>
		<edge from-layer="53" from-port="0" to-layer="234" to-port="2"/>
		<edge from-layer="54" from-port="0" to-layer="234" to-port="3"/>
		<edge from-layer="55" from-port="0" to-layer="234" to-port="4"/>
		<edge from-layer="235" from-port="0" to-layer="236" to-port="0"/>
		<edge from-layer="236" from-port="1" to-layer="238" to-port="0"/>
		<edge from-layer="237" from-port="0" to-layer="238" to-port="1"/>
		<edge from-layer="238" from-port="2" to-layer="240" to-port="0"/>
		<edge from-layer="239" from-port="0" to-layer="240" to-port="1"/>
		<edge from-layer="234" from-port="5" to-layer="241" to-port="0"/>
		<edge from-layer="240" from-port="2" to-layer="241" to-port="1"/>
		<edge from-layer="241" from-port="2" to-layer="243" to-port="0"/>
		<edge from-layer="242" from-port="0" to-layer="243" to-port="1"/>
		<edge from-layer="243" from-port="2" to-layer="244" to-port="0"/>
		<edge from-layer="244" from-port="1" to-layer="245" to-port="0"/>
		<edge from-layer="48" from-port="0" to-layer="245" to-port="1"/>
		<edge from-layer="49" from-port="0" to-layer="245" to-port="2"/>
		<edge from-layer="50" from-port="0" to-layer="245" to-port="3"/>
		<edge from-layer="51" from-port="0" to-layer="245" to-port="4"/>
		<edge from-layer="247" from-port="0" to-layer="248" to-port="0"/>
		<edge from-layer="248" from-port="1" to-layer="250" to-port="0"/>
		<edge from-layer="249" from-port="0" to-layer="250" to-port="1"/>
		<edge from-layer="250" from-port="2" to-layer="252" to-port="0"/>
		<edge from-layer="251" from-port="0" to-layer="252" to-port="1"/>
		<edge from-layer="252" from-port="2" to-layer="253" to-port="0"/>
		<edge from-layer="246" from-port="0" to-layer="253" to-port="1"/>
		<edge from-layer="245" from-port="5" to-layer="254" to-port="0"/>
		<edge from-layer="253" from-port="2" to-layer="254" to-port="1"/>
		<edge from-layer="254" from-port="2" to-layer="256" to-port="0"/>
		<edge from-layer="255" from-port="0" to-layer="256" to-port="1"/>
		<edge from-layer="256" from-port="2" to-layer="257" to-port="0"/>
		<edge from-layer="257" from-port="1" to-layer="258" to-port="0"/>
		<edge from-layer="44" from-port="0" to-layer="258" to-port="1"/>
		<edge from-layer="45" from-port="0" to-layer="258" to-port="2"/>
		<edge from-layer="46" from-port="0" to-layer="258" to-port="3"/>
		<edge from-layer="47" from-port="0" to-layer="258" to-port="4"/>
		<edge from-layer="259" from-port="0" to-layer="260" to-port="0"/>
		<edge from-layer="260" from-port="1" to-layer="262" to-port="0"/>
		<edge from-layer="261" from-port="0" to-layer="262" to-port="1"/>
		<edge from-layer="262" from-port="2" to-layer="264" to-port="0"/>
		<edge from-layer="263" from-port="0" to-layer="264" to-port="1"/>
		<edge from-layer="258" from-port="5" to-layer="265" to-port="0"/>
		<edge from-layer="264" from-port="2" to-layer="265" to-port="1"/>
		<edge from-layer="265" from-port="2" to-layer="267" to-port="0"/>
		<edge from-layer="266" from-port="0" to-layer="267" to-port="1"/>
		<edge from-layer="267" from-port="2" to-layer="268" to-port="0"/>
		<edge from-layer="268" from-port="1" to-layer="269" to-port="0"/>
		<edge from-layer="40" from-port="0" to-layer="269" to-port="1"/>
		<edge from-layer="41" from-port="0" to-layer="269" to-port="2"/>
		<edge from-layer="42" from-port="0" to-layer="269" to-port="3"/>
		<edge from-layer="43" from-port="0" to-layer="269" to-port="4"/>
		<edge from-layer="271" from-port="0" to-layer="272" to-port="0"/>
		<edge from-layer="272" from-port="1" to-layer="274" to-port="0"/>
		<edge from-layer="273" from-port="0" to-layer="274" to-port="1"/>
		<edge from-layer="274" from-port="2" to-layer="276" to-port="0"/>
		<edge from-layer="275" from-port="0" to-layer="276" to-port="1"/>
		<edge from-layer="276" from-port="2" to-layer="277" to-port="0"/>
		<edge from-layer="270" from-port="0" to-layer="277" to-port="1"/>
		<edge from-layer="269" from-port="5" to-layer="278" to-port="0"/>
		<edge from-layer="277" from-port="2" to-layer="278" to-port="1"/>
		<edge from-layer="278" from-port="2" to-layer="280" to-port="0"/>
		<edge from-layer="279" from-port="0" to-layer="280" to-port="1"/>
		<edge from-layer="280" from-port="2" to-layer="281" to-port="0"/>
		<edge from-layer="281" from-port="1" to-layer="282" to-port="0"/>
		<edge from-layer="36" from-port="0" to-layer="282" to-port="1"/>
		<edge from-layer="37" from-port="0" to-layer="282" to-port="2"/>
		<edge from-layer="38" from-port="0" to-layer="282" to-port="3"/>
		<edge from-layer="39" from-port="0" to-layer="282" to-port="4"/>
		<edge from-layer="283" from-port="0" to-layer="284" to-port="0"/>
		<edge from-layer="284" from-port="1" to-layer="286" to-port="0"/>
		<edge from-layer="285" from-port="0" to-layer="286" to-port="1"/>
		<edge from-layer="286" from-port="2" to-layer="288" to-port="0"/>
		<edge from-layer="287" from-port="0" to-layer="288" to-port="1"/>
		<edge from-layer="282" from-port="5" to-layer="289" to-port="0"/>
		<edge from-layer="288" from-port="2" to-layer="289" to-port="1"/>
		<edge from-layer="289" from-port="2" to-layer="291" to-port="0"/>
		<edge from-layer="290" from-port="0" to-layer="291" to-port="1"/>
		<edge from-layer="291" from-port="2" to-layer="292" to-port="0"/>
		<edge from-layer="292" from-port="1" to-layer="293" to-port="0"/>
		<edge from-layer="32" from-port="0" to-layer="293" to-port="1"/>
		<edge from-layer="33" from-port="0" to-layer="293" to-port="2"/>
		<edge from-layer="34" from-port="0" to-layer="293" to-port="3"/>
		<edge from-layer="35" from-port="0" to-layer="293" to-port="4"/>
		<edge from-layer="295" from-port="0" to-layer="296" to-port="0"/>
		<edge from-layer="296" from-port="1" to-layer="298" to-port="0"/>
		<edge from-layer="297" from-port="0" to-layer="298" to-port="1"/>
		<edge from-layer="298" from-port="2" to-layer="300" to-port="0"/>
		<edge from-layer="299" from-port="0" to-layer="300" to-port="1"/>
		<edge from-layer="300" from-port="2" to-layer="301" to-port="0"/>
		<edge from-layer="294" from-port="0" to-layer="301" to-port="1"/>
		<edge from-layer="293" from-port="5" to-layer="302" to-port="0"/>
		<edge from-layer="301" from-port="2" to-layer="302" to-port="1"/>
		<edge from-layer="302" from-port="2" to-layer="304" to-port="0"/>
		<edge from-layer="303" from-port="0" to-layer="304" to-port="1"/>
		<edge from-layer="304" from-port="2" to-layer="305" to-port="0"/>
		<edge from-layer="305" from-port="1" to-layer="306" to-port="0"/>
		<edge from-layer="28" from-port="0" to-layer="306" to-port="1"/>
		<edge from-layer="29" from-port="0" to-layer="306" to-port="2"/>
		<edge from-layer="30" from-port="0" to-layer="306" to-port="3"/>
		<edge from-layer="31" from-port="0" to-layer="306" to-port="4"/>
		<edge from-layer="307" from-port="0" to-layer="308" to-port="0"/>
		<edge from-layer="308" from-port="1" to-layer="310" to-port="0"/>
		<edge from-layer="309" from-port="0" to-layer="310" to-port="1"/>
		<edge from-layer="310" from-port="2" to-layer="312" to-port="0"/>
		<edge from-layer="311" from-port="0" to-layer="312" to-port="1"/>
		<edge from-layer="306" from-port="5" to-layer="313" to-port="0"/>
		<edge from-layer="312" from-port="2" to-layer="313" to-port="1"/>
		<edge from-layer="313" from-port="2" to-layer="315" to-port="0"/>
		<edge from-layer="314" from-port="0" to-layer="315" to-port="1"/>
		<edge from-layer="315" from-port="2" to-layer="316" to-port="0"/>
		<edge from-layer="316" from-port="1" to-layer="317" to-port="0"/>
		<edge from-layer="24" from-port="0" to-layer="317" to-port="1"/>
		<edge from-layer="25" from-port="0" to-layer="317" to-port="2"/>
		<edge from-layer="26" from-port="0" to-layer="317" to-port="3"/>
		<edge from-layer="27" from-port="0" to-layer="317" to-port="4"/>
		<edge from-layer="319" from-port="0" to-layer="320" to-port="0"/>
		<edge from-layer="320" from-port="1" to-layer="322" to-port="0"/>
		<edge from-layer="321" from-port="0" to-layer="322" to-port="1"/>
		<edge from-layer="322" from-port="2" to-layer="324" to-port="0"/>
		<edge from-layer="323" from-port="0" to-layer="324" to-port="1"/>
		<edge from-layer="324" from-port="2" to-layer="325" to-port="0"/>
		<edge from-layer="318" from-port="0" to-layer="325" to-port="1"/>
		<edge from-layer="317" from-port="5" to-layer="326" to-port="0"/>
		<edge from-layer="325" from-port="2" to-layer="326" to-port="1"/>
		<edge from-layer="326" from-port="2" to-layer="328" to-port="0"/>
		<edge from-layer="327" from-port="0" to-layer="328" to-port="1"/>
		<edge from-layer="328" from-port="2" to-layer="329" to-port="0"/>
		<edge from-layer="329" from-port="1" to-layer="330" to-port="0"/>
		<edge from-layer="20" from-port="0" to-layer="330" to-port="1"/>
		<edge from-layer="21" from-port="0" to-layer="330" to-port="2"/>
		<edge from-layer="22" from-port="0" to-layer="330" to-port="3"/>
		<edge from-layer="23" from-port="0" to-layer="330" to-port="4"/>
		<edge from-layer="331" from-port="0" to-layer="332" to-port="0"/>
		<edge from-layer="332" from-port="1" to-layer="334" to-port="0"/>
		<edge from-layer="333" from-port="0" to-layer="334" to-port="1"/>
		<edge from-layer="334" from-port="2" to-layer="336" to-port="0"/>
		<edge from-layer="335" from-port="0" to-layer="336" to-port="1"/>
		<edge from-layer="330" from-port="5" to-layer="337" to-port="0"/>
		<edge from-layer="336" from-port="2" to-layer="337" to-port="1"/>
		<edge from-layer="337" from-port="2" to-layer="339" to-port="0"/>
		<edge from-layer="338" from-port="0" to-layer="339" to-port="1"/>
		<edge from-layer="339" from-port="2" to-layer="340" to-port="0"/>
		<edge from-layer="340" from-port="1" to-layer="341" to-port="0"/>
		<edge from-layer="16" from-port="0" to-layer="341" to-port="1"/>
		<edge from-layer="17" from-port="0" to-layer="341" to-port="2"/>
		<edge from-layer="18" from-port="0" to-layer="341" to-port="3"/>
		<edge from-layer="19" from-port="0" to-layer="341" to-port="4"/>
		<edge from-layer="343" from-port="0" to-layer="344" to-port="0"/>
		<edge from-layer="344" from-port="1" to-layer="346" to-port="0"/>
		<edge from-layer="345" from-port="0" to-layer="346" to-port="1"/>
		<edge from-layer="346" from-port="2" to-layer="348" to-port="0"/>
		<edge from-layer="347" from-port="0" to-layer="348" to-port="1"/>
		<edge from-layer="348" from-port="2" to-layer="349" to-port="0"/>
		<edge from-layer="342" from-port="0" to-layer="349" to-port="1"/>
		<edge from-layer="341" from-port="5" to-layer="350" to-port="0"/>
		<edge from-layer="349" from-port="2" to-layer="350" to-port="1"/>
		<edge from-layer="350" from-port="2" to-layer="352" to-port="0"/>
		<edge from-layer="351" from-port="0" to-layer="352" to-port="1"/>
		<edge from-layer="352" from-port="2" to-layer="353" to-port="0"/>
		<edge from-layer="353" from-port="1" to-layer="354" to-port="0"/>
		<edge from-layer="12" from-port="0" to-layer="354" to-port="1"/>
		<edge from-layer="13" from-port="0" to-layer="354" to-port="2"/>
		<edge from-layer="14" from-port="0" to-layer="354" to-port="3"/>
		<edge from-layer="15" from-port="0" to-layer="354" to-port="4"/>
		<edge from-layer="355" from-port="0" to-layer="356" to-port="0"/>
		<edge from-layer="356" from-port="1" to-layer="358" to-port="0"/>
		<edge from-layer="357" from-port="0" to-layer="358" to-port="1"/>
		<edge from-layer="358" from-port="2" to-layer="360" to-port="0"/>
		<edge from-layer="359" from-port="0" to-layer="360" to-port="1"/>
		<edge from-layer="354" from-port="5" to-layer="361" to-port="0"/>
		<edge from-layer="360" from-port="2" to-layer="361" to-port="1"/>
		<edge from-layer="361" from-port="2" to-layer="363" to-port="0"/>
		<edge from-layer="362" from-port="0" to-layer="363" to-port="1"/>
		<edge from-layer="363" from-port="2" to-layer="364" to-port="0"/>
		<edge from-layer="364" from-port="1" to-layer="365" to-port="0"/>
		<edge from-layer="8" from-port="0" to-layer="365" to-port="1"/>
		<edge from-layer="9" from-port="0" to-layer="365" to-port="2"/>
		<edge from-layer="10" from-port="0" to-layer="365" to-port="3"/>
		<edge from-layer="11" from-port="0" to-layer="365" to-port="4"/>
		<edge from-layer="367" from-port="0" to-layer="368" to-port="0"/>
		<edge from-layer="368" from-port="1" to-layer="370" to-port="0"/>
		<edge from-layer="369" from-port="0" to-layer="370" to-port="1"/>
		<edge from-layer="370" from-port="2" to-layer="372" to-port="0"/>
		<edge from-layer="371" from-port="0" to-layer="372" to-port="1"/>
		<edge from-layer="372" from-port="2" to-layer="373" to-port="0"/>
		<edge from-layer="366" from-port="0" to-layer="373" to-port="1"/>
		<edge from-layer="365" from-port="5" to-layer="374" to-port="0"/>
		<edge from-layer="373" from-port="2" to-layer="374" to-port="1"/>
		<edge from-layer="374" from-port="2" to-layer="376" to-port="0"/>
		<edge from-layer="375" from-port="0" to-layer="376" to-port="1"/>
		<edge from-layer="376" from-port="2" to-layer="377" to-port="0"/>
		<edge from-layer="377" from-port="1" to-layer="378" to-port="0"/>
		<edge from-layer="4" from-port="0" to-layer="378" to-port="1"/>
		<edge from-layer="5" from-port="0" to-layer="378" to-port="2"/>
		<edge from-layer="6" from-port="0" to-layer="378" to-port="3"/>
		<edge from-layer="7" from-port="0" to-layer="378" to-port="4"/>
		<edge from-layer="379" from-port="0" to-layer="380" to-port="0"/>
		<edge from-layer="380" from-port="1" to-layer="382" to-port="0"/>
		<edge from-layer="381" from-port="0" to-layer="382" to-port="1"/>
		<edge from-layer="382" from-port="2" to-layer="384" to-port="0"/>
		<edge from-layer="383" from-port="0" to-layer="384" to-port="1"/>
		<edge from-layer="378" from-port="5" to-layer="385" to-port="0"/>
		<edge from-layer="384" from-port="2" to-layer="385" to-port="1"/>
		<edge from-layer="385" from-port="2" to-layer="387" to-port="0"/>
		<edge from-layer="386" from-port="0" to-layer="387" to-port="1"/>
		<edge from-layer="387" from-port="2" to-layer="388" to-port="0"/>
		<edge from-layer="388" from-port="1" to-layer="389" to-port="0"/>
		<edge from-layer="0" from-port="0" to-layer="389" to-port="1"/>
		<edge from-layer="1" from-port="0" to-layer="389" to-port="2"/>
		<edge from-layer="2" from-port="0" to-layer="389" to-port="3"/>
		<edge from-layer="3" from-port="0" to-layer="389" to-port="4"/>
		<edge from-layer="390" from-port="0" to-layer="391" to-port="0"/>
		<edge from-layer="391" from-port="1" to-layer="393" to-port="0"/>
		<edge from-layer="392" from-port="0" to-layer="393" to-port="1"/>
		<edge from-layer="393" from-port="2" to-layer="395" to-port="0"/>
		<edge from-layer="394" from-port="0" to-layer="395" to-port="1"/>
		<edge from-layer="389" from-port="5" to-layer="396" to-port="0"/>
		<edge from-layer="395" from-port="2" to-layer="396" to-port="1"/>
		<edge from-layer="396" from-port="2" to-layer="398" to-port="0"/>
		<edge from-layer="397" from-port="0" to-layer="398" to-port="1"/>
		<edge from-layer="398" from-port="2" to-layer="400" to-port="0"/>
		<edge from-layer="399" from-port="0" to-layer="400" to-port="1"/>
		<edge from-layer="400" from-port="2" to-layer="402" to-port="0"/>
		<edge from-layer="401" from-port="0" to-layer="402" to-port="1"/>
		<edge from-layer="420" from-port="0" to-layer="421" to-port="0"/>
		<edge from-layer="421" from-port="1" to-layer="423" to-port="0"/>
		<edge from-layer="422" from-port="0" to-layer="423" to-port="1"/>
		<edge from-layer="423" from-port="2" to-layer="425" to-port="0"/>
		<edge from-layer="424" from-port="0" to-layer="425" to-port="1"/>
		<edge from-layer="425" from-port="2" to-layer="426" to-port="0"/>
		<edge from-layer="419" from-port="0" to-layer="426" to-port="1"/>
		<edge from-layer="389" from-port="5" to-layer="427" to-port="0"/>
		<edge from-layer="426" from-port="2" to-layer="427" to-port="1"/>
		<edge from-layer="427" from-port="2" to-layer="429" to-port="0"/>
		<edge from-layer="428" from-port="0" to-layer="429" to-port="1"/>
		<edge from-layer="429" from-port="2" to-layer="430" to-port="0"/>
		<edge from-layer="430" from-port="1" to-layer="431" to-port="0"/>
		<edge from-layer="415" from-port="0" to-layer="431" to-port="1"/>
		<edge from-layer="416" from-port="0" to-layer="431" to-port="2"/>
		<edge from-layer="417" from-port="0" to-layer="431" to-port="3"/>
		<edge from-layer="418" from-port="0" to-layer="431" to-port="4"/>
		<edge from-layer="432" from-port="0" to-layer="433" to-port="0"/>
		<edge from-layer="433" from-port="1" to-layer="435" to-port="0"/>
		<edge from-layer="434" from-port="0" to-layer="435" to-port="1"/>
		<edge from-layer="435" from-port="2" to-layer="437" to-port="0"/>
		<edge from-layer="436" from-port="0" to-layer="437" to-port="1"/>
		<edge from-layer="431" from-port="5" to-layer="438" to-port="0"/>
		<edge from-layer="437" from-port="2" to-layer="438" to-port="1"/>
		<edge from-layer="438" from-port="2" to-layer="440" to-port="0"/>
		<edge from-layer="439" from-port="0" to-layer="440" to-port="1"/>
		<edge from-layer="440" from-port="2" to-layer="441" to-port="0"/>
		<edge from-layer="441" from-port="1" to-layer="442" to-port="0"/>
		<edge from-layer="411" from-port="0" to-layer="442" to-port="1"/>
		<edge from-layer="412" from-port="0" to-layer="442" to-port="2"/>
		<edge from-layer="413" from-port="0" to-layer="442" to-port="3"/>
		<edge from-layer="414" from-port="0" to-layer="442" to-port="4"/>
		<edge from-layer="444" from-port="0" to-layer="445" to-port="0"/>
		<edge from-layer="445" from-port="1" to-layer="447" to-port="0"/>
		<edge from-layer="446" from-port="0" to-layer="447" to-port="1"/>
		<edge from-layer="447" from-port="2" to-layer="449" to-port="0"/>
		<edge from-layer="448" from-port="0" to-layer="449" to-port="1"/>
		<edge from-layer="449" from-port="2" to-layer="450" to-port="0"/>
		<edge from-layer="443" from-port="0" to-layer="450" to-port="1"/>
		<edge from-layer="442" from-port="5" to-layer="451" to-port="0"/>
		<edge from-layer="450" from-port="2" to-layer="451" to-port="1"/>
		<edge from-layer="451" from-port="2" to-layer="453" to-port="0"/>
		<edge from-layer="452" from-port="0" to-layer="453" to-port="1"/>
		<edge from-layer="453" from-port="2" to-layer="454" to-port="0"/>
		<edge from-layer="454" from-port="1" to-layer="455" to-port="0"/>
		<edge from-layer="407" from-port="0" to-layer="455" to-port="1"/>
		<edge from-layer="408" from-port="0" to-layer="455" to-port="2"/>
		<edge from-layer="409" from-port="0" to-layer="455" to-port="3"/>
		<edge from-layer="410" from-port="0" to-layer="455" to-port="4"/>
		<edge from-layer="456" from-port="0" to-layer="457" to-port="0"/>
		<edge from-layer="457" from-port="1" to-layer="459" to-port="0"/>
		<edge from-layer="458" from-port="0" to-layer="459" to-port="1"/>
		<edge from-layer="459" from-port="2" to-layer="461" to-port="0"/>
		<edge from-layer="460" from-port="0" to-layer="461" to-port="1"/>
		<edge from-layer="455" from-port="5" to-layer="462" to-port="0"/>
		<edge from-layer="461" from-port="2" to-layer="462" to-port="1"/>
		<edge from-layer="462" from-port="2" to-layer="464" to-port="0"/>
		<edge from-layer="463" from-port="0" to-layer="464" to-port="1"/>
		<edge from-layer="464" from-port="2" to-layer="465" to-port="0"/>
		<edge from-layer="465" from-port="1" to-layer="466" to-port="0"/>
		<edge from-layer="403" from-port="0" to-layer="466" to-port="1"/>
		<edge from-layer="404" from-port="0" to-layer="466" to-port="2"/>
		<edge from-layer="405" from-port="0" to-layer="466" to-port="3"/>
		<edge from-layer="406" from-port="0" to-layer="466" to-port="4"/>
		<edge from-layer="467" from-port="0" to-layer="468" to-port="0"/>
		<edge from-layer="468" from-port="1" to-layer="470" to-port="0"/>
		<edge from-layer="469" from-port="0" to-layer="470" to-port="1"/>
		<edge from-layer="470" from-port="2" to-layer="472" to-port="0"/>
		<edge from-layer="471" from-port="0" to-layer="472" to-port="1"/>
		<edge from-layer="466" from-port="5" to-layer="473" to-port="0"/>
		<edge from-layer="472" from-port="2" to-layer="473" to-port="1"/>
		<edge from-layer="473" from-port="2" to-layer="475" to-port="0"/>
		<edge from-layer="474" from-port="0" to-layer="475" to-port="1"/>
		<edge from-layer="475" from-port="2" to-layer="477" to-port="0"/>
		<edge from-layer="476" from-port="0" to-layer="477" to-port="1"/>
		<edge from-layer="477" from-port="2" to-layer="479" to-port="0"/>
		<edge from-layer="478" from-port="0" to-layer="479" to-port="1"/>
		<edge from-layer="488" from-port="0" to-layer="489" to-port="0"/>
		<edge from-layer="489" from-port="1" to-layer="491" to-port="0"/>
		<edge from-layer="490" from-port="0" to-layer="491" to-port="1"/>
		<edge from-layer="491" from-port="2" to-layer="493" to-port="0"/>
		<edge from-layer="492" from-port="0" to-layer="493" to-port="1"/>
		<edge from-layer="466" from-port="5" to-layer="494" to-port="0"/>
		<edge from-layer="493" from-port="2" to-layer="494" to-port="1"/>
		<edge from-layer="494" from-port="2" to-layer="496" to-port="0"/>
		<edge from-layer="495" from-port="0" to-layer="496" to-port="1"/>
		<edge from-layer="496" from-port="2" to-layer="497" to-port="0"/>
		<edge from-layer="497" from-port="1" to-layer="498" to-port="0"/>
		<edge from-layer="484" from-port="0" to-layer="498" to-port="1"/>
		<edge from-layer="485" from-port="0" to-layer="498" to-port="2"/>
		<edge from-layer="486" from-port="0" to-layer="498" to-port="3"/>
		<edge from-layer="487" from-port="0" to-layer="498" to-port="4"/>
		<edge from-layer="499" from-port="0" to-layer="500" to-port="0"/>
		<edge from-layer="500" from-port="1" to-layer="502" to-port="0"/>
		<edge from-layer="501" from-port="0" to-layer="502" to-port="1"/>
		<edge from-layer="502" from-port="2" to-layer="504" to-port="0"/>
		<edge from-layer="503" from-port="0" to-layer="504" to-port="1"/>
		<edge from-layer="498" from-port="5" to-layer="505" to-port="0"/>
		<edge from-layer="504" from-port="2" to-layer="505" to-port="1"/>
		<edge from-layer="505" from-port="2" to-layer="507" to-port="0"/>
		<edge from-layer="506" from-port="0" to-layer="507" to-port="1"/>
		<edge from-layer="507" from-port="2" to-layer="508" to-port="0"/>
		<edge from-layer="508" from-port="1" to-layer="509" to-port="0"/>
		<edge from-layer="480" from-port="0" to-layer="509" to-port="1"/>
		<edge from-layer="481" from-port="0" to-layer="509" to-port="2"/>
		<edge from-layer="482" from-port="0" to-layer="509" to-port="3"/>
		<edge from-layer="483" from-port="0" to-layer="509" to-port="4"/>
		<edge from-layer="510" from-port="0" to-layer="511" to-port="0"/>
		<edge from-layer="511" from-port="1" to-layer="513" to-port="0"/>
		<edge from-layer="512" from-port="0" to-layer="513" to-port="1"/>
		<edge from-layer="513" from-port="2" to-layer="515" to-port="0"/>
		<edge from-layer="514" from-port="0" to-layer="515" to-port="1"/>
		<edge from-layer="509" from-port="5" to-layer="516" to-port="0"/>
		<edge from-layer="515" from-port="2" to-layer="516" to-port="1"/>
		<edge from-layer="516" from-port="2" to-layer="518" to-port="0"/>
		<edge from-layer="517" from-port="0" to-layer="518" to-port="1"/>
		<edge from-layer="518" from-port="2" to-layer="520" to-port="0"/>
		<edge from-layer="519" from-port="0" to-layer="520" to-port="1"/>
		<edge from-layer="520" from-port="2" to-layer="522" to-port="0"/>
		<edge from-layer="521" from-port="0" to-layer="522" to-port="1"/>
		<edge from-layer="531" from-port="0" to-layer="532" to-port="0"/>
		<edge from-layer="532" from-port="1" to-layer="534" to-port="0"/>
		<edge from-layer="533" from-port="0" to-layer="534" to-port="1"/>
		<edge from-layer="534" from-port="2" to-layer="536" to-port="0"/>
		<edge from-layer="535" from-port="0" to-layer="536" to-port="1"/>
		<edge from-layer="509" from-port="5" to-layer="537" to-port="0"/>
		<edge from-layer="536" from-port="2" to-layer="537" to-port="1"/>
		<edge from-layer="537" from-port="2" to-layer="539" to-port="0"/>
		<edge from-layer="538" from-port="0" to-layer="539" to-port="1"/>
		<edge from-layer="539" from-port="2" to-layer="540" to-port="0"/>
		<edge from-layer="540" from-port="1" to-layer="541" to-port="0"/>
		<edge from-layer="527" from-port="0" to-layer="541" to-port="1"/>
		<edge from-layer="528" from-port="0" to-layer="541" to-port="2"/>
		<edge from-layer="529" from-port="0" to-layer="541" to-port="3"/>
		<edge from-layer="530" from-port="0" to-layer="541" to-port="4"/>
		<edge from-layer="542" from-port="0" to-layer="543" to-port="0"/>
		<edge from-layer="543" from-port="1" to-layer="545" to-port="0"/>
		<edge from-layer="544" from-port="0" to-layer="545" to-port="1"/>
		<edge from-layer="545" from-port="2" to-layer="547" to-port="0"/>
		<edge from-layer="546" from-port="0" to-layer="547" to-port="1"/>
		<edge from-layer="541" from-port="5" to-layer="548" to-port="0"/>
		<edge from-layer="547" from-port="2" to-layer="548" to-port="1"/>
		<edge from-layer="548" from-port="2" to-layer="550" to-port="0"/>
		<edge from-layer="549" from-port="0" to-layer="550" to-port="1"/>
		<edge from-layer="550" from-port="2" to-layer="551" to-port="0"/>
		<edge from-layer="551" from-port="1" to-layer="552" to-port="0"/>
		<edge from-layer="523" from-port="0" to-layer="552" to-port="1"/>
		<edge from-layer="524" from-port="0" to-layer="552" to-port="2"/>
		<edge from-layer="525" from-port="0" to-layer="552" to-port="3"/>
		<edge from-layer="526" from-port="0" to-layer="552" to-port="4"/>
		<edge from-layer="553" from-port="0" to-layer="554" to-port="0"/>
		<edge from-layer="554" from-port="1" to-layer="556" to-port="0"/>
		<edge from-layer="555" from-port="0" to-layer="556" to-port="1"/>
		<edge from-layer="556" from-port="2" to-layer="558" to-port="0"/>
		<edge from-layer="557" from-port="0" to-layer="558" to-port="1"/>
		<edge from-layer="552" from-port="5" to-layer="559" to-port="0"/>
		<edge from-layer="558" from-port="2" to-layer="559" to-port="1"/>
		<edge from-layer="559" from-port="2" to-layer="561" to-port="0"/>
		<edge from-layer="560" from-port="0" to-layer="561" to-port="1"/>
		<edge from-layer="561" from-port="2" to-layer="563" to-port="0"/>
		<edge from-layer="562" from-port="0" to-layer="563" to-port="1"/>
		<edge from-layer="563" from-port="2" to-layer="565" to-port="0"/>
		<edge from-layer="564" from-port="0" to-layer="565" to-port="1"/>
		<edge from-layer="574" from-port="0" to-layer="575" to-port="0"/>
		<edge from-layer="575" from-port="1" to-layer="577" to-port="0"/>
		<edge from-layer="576" from-port="0" to-layer="577" to-port="1"/>
		<edge from-layer="577" from-port="2" to-layer="579" to-port="0"/>
		<edge from-layer="578" from-port="0" to-layer="579" to-port="1"/>
		<edge from-layer="552" from-port="5" to-layer="580" to-port="0"/>
		<edge from-layer="579" from-port="2" to-layer="580" to-port="1"/>
		<edge from-layer="580" from-port="2" to-layer="582" to-port="0"/>
		<edge from-layer="581" from-port="0" to-layer="582" to-port="1"/>
		<edge from-layer="582" from-port="2" to-layer="583" to-port="0"/>
		<edge from-layer="583" from-port="1" to-layer="584" to-port="0"/>
		<edge from-layer="570" from-port="0" to-layer="584" to-port="1"/>
		<edge from-layer="571" from-port="0" to-layer="584" to-port="2"/>
		<edge from-layer="572" from-port="0" to-layer="584" to-port="3"/>
		<edge from-layer="573" from-port="0" to-layer="584" to-port="4"/>
		<edge from-layer="585" from-port="0" to-layer="586" to-port="0"/>
		<edge from-layer="586" from-port="1" to-layer="588" to-port="0"/>
		<edge from-layer="587" from-port="0" to-layer="588" to-port="1"/>
		<edge from-layer="588" from-port="2" to-layer="590" to-port="0"/>
		<edge from-layer="589" from-port="0" to-layer="590" to-port="1"/>
		<edge from-layer="584" from-port="5" to-layer="591" to-port="0"/>
		<edge from-layer="590" from-port="2" to-layer="591" to-port="1"/>
		<edge from-layer="591" from-port="2" to-layer="593" to-port="0"/>
		<edge from-layer="592" from-port="0" to-layer="593" to-port="1"/>
		<edge from-layer="593" from-port="2" to-layer="594" to-port="0"/>
		<edge from-layer="594" from-port="1" to-layer="595" to-port="0"/>
		<edge from-layer="566" from-port="0" to-layer="595" to-port="1"/>
		<edge from-layer="567" from-port="0" to-layer="595" to-port="2"/>
		<edge from-layer="568" from-port="0" to-layer="595" to-port="3"/>
		<edge from-layer="569" from-port="0" to-layer="595" to-port="4"/>
		<edge from-layer="596" from-port="0" to-layer="597" to-port="0"/>
		<edge from-layer="597" from-port="1" to-layer="599" to-port="0"/>
		<edge from-layer="598" from-port="0" to-layer="599" to-port="1"/>
		<edge from-layer="599" from-port="2" to-layer="601" to-port="0"/>
		<edge from-layer="600" from-port="0" to-layer="601" to-port="1"/>
		<edge from-layer="595" from-port="5" to-layer="602" to-port="0"/>
		<edge from-layer="601" from-port="2" to-layer="602" to-port="1"/>
		<edge from-layer="602" from-port="2" to-layer="604" to-port="0"/>
		<edge from-layer="603" from-port="0" to-layer="604" to-port="1"/>
		<edge from-layer="604" from-port="2" to-layer="606" to-port="0"/>
		<edge from-layer="605" from-port="0" to-layer="606" to-port="1"/>
		<edge from-layer="606" from-port="2" to-layer="608" to-port="0"/>
		<edge from-layer="607" from-port="0" to-layer="608" to-port="1"/>
		<edge from-layer="617" from-port="0" to-layer="618" to-port="0"/>
		<edge from-layer="618" from-port="1" to-layer="620" to-port="0"/>
		<edge from-layer="619" from-port="0" to-layer="620" to-port="1"/>
		<edge from-layer="620" from-port="2" to-layer="622" to-port="0"/>
		<edge from-layer="621" from-port="0" to-layer="622" to-port="1"/>
		<edge from-layer="595" from-port="5" to-layer="623" to-port="0"/>
		<edge from-layer="622" from-port="2" to-layer="623" to-port="1"/>
		<edge from-layer="623" from-port="2" to-layer="625" to-port="0"/>
		<edge from-layer="624" from-port="0" to-layer="625" to-port="1"/>
		<edge from-layer="625" from-port="2" to-layer="626" to-port="0"/>
		<edge from-layer="626" from-port="1" to-layer="627" to-port="0"/>
		<edge from-layer="613" from-port="0" to-layer="627" to-port="1"/>
		<edge from-layer="614" from-port="0" to-layer="627" to-port="2"/>
		<edge from-layer="615" from-port="0" to-layer="627" to-port="3"/>
		<edge from-layer="616" from-port="0" to-layer="627" to-port="4"/>
		<edge from-layer="628" from-port="0" to-layer="629" to-port="0"/>
		<edge from-layer="629" from-port="1" to-layer="631" to-port="0"/>
		<edge from-layer="630" from-port="0" to-layer="631" to-port="1"/>
		<edge from-layer="631" from-port="2" to-layer="633" to-port="0"/>
		<edge from-layer="632" from-port="0" to-layer="633" to-port="1"/>
		<edge from-layer="627" from-port="5" to-layer="634" to-port="0"/>
		<edge from-layer="633" from-port="2" to-layer="634" to-port="1"/>
		<edge from-layer="634" from-port="2" to-layer="636" to-port="0"/>
		<edge from-layer="635" from-port="0" to-layer="636" to-port="1"/>
		<edge from-layer="636" from-port="2" to-layer="637" to-port="0"/>
		<edge from-layer="637" from-port="1" to-layer="638" to-port="0"/>
		<edge from-layer="609" from-port="0" to-layer="638" to-port="1"/>
		<edge from-layer="610" from-port="0" to-layer="638" to-port="2"/>
		<edge from-layer="611" from-port="0" to-layer="638" to-port="3"/>
		<edge from-layer="612" from-port="0" to-layer="638" to-port="4"/>
		<edge from-layer="639" from-port="0" to-layer="640" to-port="0"/>
		<edge from-layer="640" from-port="1" to-layer="642" to-port="0"/>
		<edge from-layer="641" from-port="0" to-layer="642" to-port="1"/>
		<edge from-layer="642" from-port="2" to-layer="644" to-port="0"/>
		<edge from-layer="643" from-port="0" to-layer="644" to-port="1"/>
		<edge from-layer="638" from-port="5" to-layer="645" to-port="0"/>
		<edge from-layer="644" from-port="2" to-layer="645" to-port="1"/>
		<edge from-layer="645" from-port="2" to-layer="647" to-port="0"/>
		<edge from-layer="646" from-port="0" to-layer="647" to-port="1"/>
		<edge from-layer="647" from-port="2" to-layer="649" to-port="0"/>
		<edge from-layer="648" from-port="0" to-layer="649" to-port="1"/>
		<edge from-layer="649" from-port="2" to-layer="651" to-port="0"/>
		<edge from-layer="650" from-port="0" to-layer="651" to-port="1"/>
		<edge from-layer="402" from-port="2" to-layer="652" to-port="0"/>
		<edge from-layer="479" from-port="2" to-layer="652" to-port="1"/>
		<edge from-layer="522" from-port="2" to-layer="652" to-port="2"/>
		<edge from-layer="565" from-port="2" to-layer="652" to-port="3"/>
		<edge from-layer="608" from-port="2" to-layer="652" to-port="4"/>
		<edge from-layer="651" from-port="2" to-layer="652" to-port="5"/>
		<edge from-layer="652" from-port="6" to-layer="654" to-port="0"/>
		<edge from-layer="653" from-port="0" to-layer="654" to-port="1"/>
		<edge from-layer="655" from-port="0" to-layer="656" to-port="0"/>
		<edge from-layer="656" from-port="1" to-layer="658" to-port="0"/>
		<edge from-layer="657" from-port="0" to-layer="658" to-port="1"/>
		<edge from-layer="658" from-port="2" to-layer="660" to-port="0"/>
		<edge from-layer="659" from-port="0" to-layer="660" to-port="1"/>
		<edge from-layer="389" from-port="5" to-layer="661" to-port="0"/>
		<edge from-layer="660" from-port="2" to-layer="661" to-port="1"/>
		<edge from-layer="661" from-port="2" to-layer="663" to-port="0"/>
		<edge from-layer="662" from-port="0" to-layer="663" to-port="1"/>
		<edge from-layer="663" from-port="2" to-layer="665" to-port="0"/>
		<edge from-layer="664" from-port="0" to-layer="665" to-port="1"/>
		<edge from-layer="665" from-port="2" to-layer="667" to-port="0"/>
		<edge from-layer="666" from-port="0" to-layer="667" to-port="1"/>
		<edge from-layer="668" from-port="0" to-layer="669" to-port="0"/>
		<edge from-layer="669" from-port="1" to-layer="671" to-port="0"/>
		<edge from-layer="670" from-port="0" to-layer="671" to-port="1"/>
		<edge from-layer="671" from-port="2" to-layer="673" to-port="0"/>
		<edge from-layer="672" from-port="0" to-layer="673" to-port="1"/>
		<edge from-layer="466" from-port="5" to-layer="674" to-port="0"/>
		<edge from-layer="673" from-port="2" to-layer="674" to-port="1"/>
		<edge from-layer="674" from-port="2" to-layer="676" to-port="0"/>
		<edge from-layer="675" from-port="0" to-layer="676" to-port="1"/>
		<edge from-layer="676" from-port="2" to-layer="678" to-port="0"/>
		<edge from-layer="677" from-port="0" to-layer="678" to-port="1"/>
		<edge from-layer="678" from-port="2" to-layer="680" to-port="0"/>
		<edge from-layer="679" from-port="0" to-layer="680" to-port="1"/>
		<edge from-layer="681" from-port="0" to-layer="682" to-port="0"/>
		<edge from-layer="682" from-port="1" to-layer="684" to-port="0"/>
		<edge from-layer="683" from-port="0" to-layer="684" to-port="1"/>
		<edge from-layer="684" from-port="2" to-layer="686" to-port="0"/>
		<edge from-layer="685" from-port="0" to-layer="686" to-port="1"/>
		<edge from-layer="509" from-port="5" to-layer="687" to-port="0"/>
		<edge from-layer="686" from-port="2" to-layer="687" to-port="1"/>
		<edge from-layer="687" from-port="2" to-layer="689" to-port="0"/>
		<edge from-layer="688" from-port="0" to-layer="689" to-port="1"/>
		<edge from-layer="689" from-port="2" to-layer="691" to-port="0"/>
		<edge from-layer="690" from-port="0" to-layer="691" to-port="1"/>
		<edge from-layer="691" from-port="2" to-layer="693" to-port="0"/>
		<edge from-layer="692" from-port="0" to-layer="693" to-port="1"/>
		<edge from-layer="694" from-port="0" to-layer="695" to-port="0"/>
		<edge from-layer="695" from-port="1" to-layer="697" to-port="0"/>
		<edge from-layer="696" from-port="0" to-layer="697" to-port="1"/>
		<edge from-layer="697" from-port="2" to-layer="699" to-port="0"/>
		<edge from-layer="698" from-port="0" to-layer="699" to-port="1"/>
		<edge from-layer="552" from-port="5" to-layer="700" to-port="0"/>
		<edge from-layer="699" from-port="2" to-layer="700" to-port="1"/>
		<edge from-layer="700" from-port="2" to-layer="702" to-port="0"/>
		<edge from-layer="701" from-port="0" to-layer="702" to-port="1"/>
		<edge from-layer="702" from-port="2" to-layer="704" to-port="0"/>
		<edge from-layer="703" from-port="0" to-layer="704" to-port="1"/>
		<edge from-layer="704" from-port="2" to-layer="706" to-port="0"/>
		<edge from-layer="705" from-port="0" to-layer="706" to-port="1"/>
		<edge from-layer="707" from-port="0" to-layer="708" to-port="0"/>
		<edge from-layer="708" from-port="1" to-layer="710" to-port="0"/>
		<edge from-layer="709" from-port="0" to-layer="710" to-port="1"/>
		<edge from-layer="710" from-port="2" to-layer="712" to-port="0"/>
		<edge from-layer="711" from-port="0" to-layer="712" to-port="1"/>
		<edge from-layer="595" from-port="5" to-layer="713" to-port="0"/>
		<edge from-layer="712" from-port="2" to-layer="713" to-port="1"/>
		<edge from-layer="713" from-port="2" to-layer="715" to-port="0"/>
		<edge from-layer="714" from-port="0" to-layer="715" to-port="1"/>
		<edge from-layer="715" from-port="2" to-layer="717" to-port="0"/>
		<edge from-layer="716" from-port="0" to-layer="717" to-port="1"/>
		<edge from-layer="717" from-port="2" to-layer="719" to-port="0"/>
		<edge from-layer="718" from-port="0" to-layer="719" to-port="1"/>
		<edge from-layer="720" from-port="0" to-layer="721" to-port="0"/>
		<edge from-layer="721" from-port="1" to-layer="723" to-port="0"/>
		<edge from-layer="722" from-port="0" to-layer="723" to-port="1"/>
		<edge from-layer="723" from-port="2" to-layer="725" to-port="0"/>
		<edge from-layer="724" from-port="0" to-layer="725" to-port="1"/>
		<edge from-layer="638" from-port="5" to-layer="726" to-port="0"/>
		<edge from-layer="725" from-port="2" to-layer="726" to-port="1"/>
		<edge from-layer="726" from-port="2" to-layer="728" to-port="0"/>
		<edge from-layer="727" from-port="0" to-layer="728" to-port="1"/>
		<edge from-layer="728" from-port="2" to-layer="730" to-port="0"/>
		<edge from-layer="729" from-port="0" to-layer="730" to-port="1"/>
		<edge from-layer="730" from-port="2" to-layer="732" to-port="0"/>
		<edge from-layer="731" from-port="0" to-layer="732" to-port="1"/>
		<edge from-layer="667" from-port="2" to-layer="733" to-port="0"/>
		<edge from-layer="680" from-port="2" to-layer="733" to-port="1"/>
		<edge from-layer="693" from-port="2" to-layer="733" to-port="2"/>
		<edge from-layer="706" from-port="2" to-layer="733" to-port="3"/>
		<edge from-layer="719" from-port="2" to-layer="733" to-port="4"/>
		<edge from-layer="732" from-port="2" to-layer="733" to-port="5"/>
		<edge from-layer="733" from-port="6" to-layer="735" to-port="0"/>
		<edge from-layer="734" from-port="0" to-layer="735" to-port="1"/>
		<edge from-layer="735" from-port="2" to-layer="736" to-port="0"/>
		<edge from-layer="736" from-port="1" to-layer="738" to-port="0"/>
		<edge from-layer="737" from-port="0" to-layer="738" to-port="1"/>
		<edge from-layer="398" from-port="2" to-layer="739" to-port="0"/>
		<edge from-layer="739" from-port="1" to-layer="743" to-port="0"/>
		<edge from-layer="740" from-port="0" to-layer="743" to-port="1"/>
		<edge from-layer="741" from-port="0" to-layer="743" to-port="2"/>
		<edge from-layer="742" from-port="0" to-layer="743" to-port="3"/>
		<edge from-layer="104" from-port="2" to-layer="744" to-port="0"/>
		<edge from-layer="744" from-port="1" to-layer="748" to-port="0"/>
		<edge from-layer="745" from-port="0" to-layer="748" to-port="1"/>
		<edge from-layer="746" from-port="0" to-layer="748" to-port="2"/>
		<edge from-layer="747" from-port="0" to-layer="748" to-port="3"/>
		<edge from-layer="743" from-port="4" to-layer="749" to-port="0"/>
		<edge from-layer="748" from-port="4" to-layer="749" to-port="1"/>
		<edge from-layer="749" from-port="2" to-layer="751" to-port="0"/>
		<edge from-layer="750" from-port="0" to-layer="751" to-port="1"/>
		<edge from-layer="475" from-port="2" to-layer="752" to-port="0"/>
		<edge from-layer="752" from-port="1" to-layer="756" to-port="0"/>
		<edge from-layer="753" from-port="0" to-layer="756" to-port="1"/>
		<edge from-layer="754" from-port="0" to-layer="756" to-port="2"/>
		<edge from-layer="755" from-port="0" to-layer="756" to-port="3"/>
		<edge from-layer="744" from-port="1" to-layer="760" to-port="0"/>
		<edge from-layer="757" from-port="0" to-layer="760" to-port="1"/>
		<edge from-layer="758" from-port="0" to-layer="760" to-port="2"/>
		<edge from-layer="759" from-port="0" to-layer="760" to-port="3"/>
		<edge from-layer="756" from-port="4" to-layer="761" to-port="0"/>
		<edge from-layer="760" from-port="4" to-layer="761" to-port="1"/>
		<edge from-layer="761" from-port="2" to-layer="763" to-port="0"/>
		<edge from-layer="762" from-port="0" to-layer="763" to-port="1"/>
		<edge from-layer="518" from-port="2" to-layer="764" to-port="0"/>
		<edge from-layer="764" from-port="1" to-layer="768" to-port="0"/>
		<edge from-layer="765" from-port="0" to-layer="768" to-port="1"/>
		<edge from-layer="766" from-port="0" to-layer="768" to-port="2"/>
		<edge from-layer="767" from-port="0" to-layer="768" to-port="3"/>
		<edge from-layer="744" from-port="1" to-layer="772" to-port="0"/>
		<edge from-layer="769" from-port="0" to-layer="772" to-port="1"/>
		<edge from-layer="770" from-port="0" to-layer="772" to-port="2"/>
		<edge from-layer="771" from-port="0" to-layer="772" to-port="3"/>
		<edge from-layer="768" from-port="4" to-layer="773" to-port="0"/>
		<edge from-layer="772" from-port="4" to-layer="773" to-port="1"/>
		<edge from-layer="773" from-port="2" to-layer="775" to-port="0"/>
		<edge from-layer="774" from-port="0" to-layer="775" to-port="1"/>
		<edge from-layer="561" from-port="2" to-layer="776" to-port="0"/>
		<edge from-layer="776" from-port="1" to-layer="780" to-port="0"/>
		<edge from-layer="777" from-port="0" to-layer="780" to-port="1"/>
		<edge from-layer="778" from-port="0" to-layer="780" to-port="2"/>
		<edge from-layer="779" from-port="0" to-layer="780" to-port="3"/>
		<edge from-layer="744" from-port="1" to-layer="784" to-port="0"/>
		<edge from-layer="781" from-port="0" to-layer="784" to-port="1"/>
		<edge from-layer="782" from-port="0" to-layer="784" to-port="2"/>
		<edge from-layer="783" from-port="0" to-layer="784" to-port="3"/>
		<edge from-layer="780" from-port="4" to-layer="785" to-port="0"/>
		<edge from-layer="784" from-port="4" to-layer="785" to-port="1"/>
		<edge from-layer="785" from-port="2" to-layer="787" to-port="0"/>
		<edge from-layer="786" from-port="0" to-layer="787" to-port="1"/>
		<edge from-layer="604" from-port="2" to-layer="788" to-port="0"/>
		<edge from-layer="788" from-port="1" to-layer="792" to-port="0"/>
		<edge from-layer="789" from-port="0" to-layer="792" to-port="1"/>
		<edge from-layer="790" from-port="0" to-layer="792" to-port="2"/>
		<edge from-layer="791" from-port="0" to-layer="792" to-port="3"/>
		<edge from-layer="744" from-port="1" to-layer="796" to-port="0"/>
		<edge from-layer="793" from-port="0" to-layer="796" to-port="1"/>
		<edge from-layer="794" from-port="0" to-layer="796" to-port="2"/>
		<edge from-layer="795" from-port="0" to-layer="796" to-port="3"/>
		<edge from-layer="792" from-port="4" to-layer="797" to-port="0"/>
		<edge from-layer="796" from-port="4" to-layer="797" to-port="1"/>
		<edge from-layer="797" from-port="2" to-layer="799" to-port="0"/>
		<edge from-layer="798" from-port="0" to-layer="799" to-port="1"/>
		<edge from-layer="647" from-port="2" to-layer="800" to-port="0"/>
		<edge from-layer="800" from-port="1" to-layer="804" to-port="0"/>
		<edge from-layer="801" from-port="0" to-layer="804" to-port="1"/>
		<edge from-layer="802" from-port="0" to-layer="804" to-port="2"/>
		<edge from-layer="803" from-port="0" to-layer="804" to-port="3"/>
		<edge from-layer="744" from-port="1" to-layer="808" to-port="0"/>
		<edge from-layer="805" from-port="0" to-layer="808" to-port="1"/>
		<edge from-layer="806" from-port="0" to-layer="808" to-port="2"/>
		<edge from-layer="807" from-port="0" to-layer="808" to-port="3"/>
		<edge from-layer="804" from-port="4" to-layer="809" to-port="0"/>
		<edge from-layer="808" from-port="4" to-layer="809" to-port="1"/>
		<edge from-layer="809" from-port="2" to-layer="811" to-port="0"/>
		<edge from-layer="810" from-port="0" to-layer="811" to-port="1"/>
		<edge from-layer="751" from-port="2" to-layer="812" to-port="0"/>
		<edge from-layer="763" from-port="2" to-layer="812" to-port="1"/>
		<edge from-layer="775" from-port="2" to-layer="812" to-port="2"/>
		<edge from-layer="787" from-port="2" to-layer="812" to-port="3"/>
		<edge from-layer="799" from-port="2" to-layer="812" to-port="4"/>
		<edge from-layer="811" from-port="2" to-layer="812" to-port="5"/>
		<edge from-layer="654" from-port="2" to-layer="813" to-port="0"/>
		<edge from-layer="738" from-port="2" to-layer="813" to-port="1"/>
		<edge from-layer="812" from-port="6" to-layer="813" to-port="2"/>
		<edge from-layer="813" from-port="3" to-layer="814" to-port="0"/>
	</edges>
	<meta_data>
		<MO_version value="custom_master_031e998a15ec738c64cc2379d7f30fb73087c272"/>
		<cli_parameters>
			<caffe_parser_path value="DIR"/>
			<compress_fp16 value="False"/>
			<data_type value="FP16"/>
			<disable_nhwc_to_nchw value="False"/>
			<disable_omitting_optional value="False"/>
			<disable_resnet_optimization value="False"/>
			<disable_weights_compression value="False"/>
			<enable_concat_optimization value="False"/>
			<enable_flattening_nested_params value="False"/>
			<enable_ssd_gluoncv value="False"/>
			<extensions value="DIR"/>
			<framework value="tf"/>
			<freeze_placeholder_with_value value="{}"/>
			<generate_deprecated_IR_V7 value="False"/>
			<input value="image_tensor"/>
			<input_model value="DIR/frozen_inference_graph.pb"/>
			<input_model_is_text value="False"/>
			<input_shape value="[1,300,300,3]"/>
			<k value="DIR/CustomLayersMapping.xml"/>
			<keep_shape_ops value="True"/>
			<legacy_ir_generation value="False"/>
			<legacy_mxnet_model value="False"/>
			<log_level value="ERROR"/>
			<mean_scale_values value="{}"/>
			<mean_values value="()"/>
			<model_name value="ssd_mobilenet_v1_coco"/>
			<output value="['detection_scores', 'detection_boxes', 'num_detections']"/>
			<output_dir value="DIR"/>
			<placeholder_data_types value="{}"/>
			<placeholder_shapes value="{'image_tensor': array([  1, 300, 300,   3])}"/>
			<progress value="False"/>
			<remove_memory value="False"/>
			<remove_output_softmax value="False"/>
			<reverse_input_channels value="True"/>
			<save_params_from_nd value="False"/>
			<scale_values value="()"/>
			<silent value="False"/>
			<static_shape value="False"/>
			<stream_output value="False"/>
			<tensorflow_object_detection_api_pipeline_config value="DIR/pipeline.config"/>
			<transform value=""/>
			<transformations_config value="DIR/ssd_v2_support.json"/>
			<use_legacy_frontend value="False"/>
			<use_new_frontend value="False"/>
			<unset unset_cli_parameters="batch, counts, disable_fusing, disable_gfusing, finegrain_fusing, input_checkpoint, input_meta_graph, input_proto, input_symbol, mean_file, mean_file_offsets, move_to_preprocess, nd_prefix_name, pretrained_model_name, saved_model_dir, saved_model_tags, scale, tensorboard_logdir, tensorflow_custom_layer_libraries, tensorflow_custom_operations_config_update, tensorflow_use_custom_operations_config"/>
		</cli_parameters>
	</meta_data>
	<quantization_parameters>
		<config>{
		'compression': {
			'target_device': 'ANY',
			'algorithms': [
				{
					'name': 'DefaultQuantization',
					'params': {
						'preset': 'performance',
						'stat_subset_size': 1
					}
				}
			]
		},
		'engine': {
			'models': [
				{
					'name': 'ssd_mobilenet_v1_coco',
					'launchers': [
						{
							'framework': 'dlsdk',
							'adapter': 'ssd',
							'device': 'CPU'
						}
					],
					'datasets': [
						{
							'name': 'ms_coco_detection_91_classes',
							'annotation_conversion': {
								'converter': 'mscoco_detection',
								'annotation_file': '/mnt/MSCOCO/annotations/instances_val2017.json',
								'has_background': true,
								'sort_annotations': true,
								'use_full_label_map': true
							},
							'data_source': 'PATH',
							'preprocessing': [
								{
									'type': 'resize',
									'size': 300
								}
							],
							'postprocessing': [
								{
									'type': 'resize_prediction_boxes'
								}
							],
							'metrics': [
								{
									'type': 'coco_precision',
									'reference': 0.233212
								}
							],
							'_command_line_mapping': {}
						}
					]
				}
			],
			'stat_requests_number': null,
			'eval_requests_number': null,
			'type': 'accuracy_checker'
		}
	}</config>
		<version value="1.0"/>
		<cli_params value="{'quantize': None, 'preset': None, 'model': None, 'weights': None, 'name': None, 'ac_config': None, 'max_drop': None, 'evaluate': False, 'output_dir': 'PATH', 'direct_dump': False, 'log_level': 'INFO', 'pbar': False, 'stream_output': False, 'keep_uncompressed_weights': False}"/>
	</quantization_parameters>
</net>
